examples/mujoco_Go1/nn_params/Go1JoystickFlatTerrain/hidden_0_kernel.npy (npy, 98432 bytes, 1 tensors)

array f4 [48, 512]
0	0xbe392335	-0.18079837
1	0x3d37ca8a	0.04487089
2	0xbe89d37e	-0.26919168
3	0x3dde4b5a	0.10854216
4	0xbcc20ee1	-0.023688735
5	0x3df6e932	0.12056197
6	0xbe932a8f	-0.28743407
7	0x3d962556	0.0733134
8	0xbec56949	-0.3855689
9	0x3eab76ab	0.33488974
10	0xbe73d07d	-0.2381
11	0xbd5ba448	-0.053623468
12	0x3c494068	0.012283422
13	0x3ca5e149	0.020249026
14	0xbd86d73d	-0.06584022
15	0x3e4daf46	0.20086393
16	0xbd5c9db6	-0.053861342
17	0xbdf52835	-0.119705595
18	0x3e460f2c	0.19341725
19	0x3b7eecfe	0.0038898583
20	0x3e9fb275	0.3119084
21	0x3e162a83	0.14664654
22	0xbea7c4bb	-0.3276728
23	0x3e375086	0.17901811
24	0x3ee9f860	0.45697308
25	0xbd72b81f	-0.059257623
26	0xbe57c1dc	-0.21070045
27	0x3e489bab	0.19590633
28	0xbe659a40	-0.22422123
29	0xbda0e032	-0.07855262
30	0xbe6c7c39	-0.23094262
31	0x3e207bb3	0.15672188
32	0x3ec30bd0	0.3809495
33	0x3e189db8	0.14903915
34	0xbe736803	-0.23770146
35	0x3e38c9b2	0.1804569
36	0xbcf41fc3	-0.029800301
37	0xbe4fe2d3	-0.2030137
38	0xbe941c77	-0.28927967
39	0xbedad32d	-0.4273924
40	0xbe24ccf3	-0.16093807
41	0x3e93808c	0.2880901
42	0xbe4df1ac	-0.20111722
43	0xbeb2cf94	-0.34923995
44	0x3b39b330	0.0028335564
45	0xbe194cd1	-0.1497071
46	0x3d69690b	0.056984942
47	0x3dd31682	0.103070274
48	0xbdcf9772	-0.10136308
49	0x3e85ec08	0.2615664
50	0xbece46ce	-0.40288395
51	0xbe61b3b0	-0.22041202
52	0x3e94b6b8	0.29045653
53	0xbd0073f5	-0.031360585
54	0x3e5cda6c	0.21567696
55	0xbe87943e	-0.26480287
56	0x3dc5863d	0.096447445
57	0x3eb1ce67	0.34727785
58	0xbeb9b5b9	-0.36271456
59	0xbe8c1326	-0.2735836
60	0x3dc57b75	0.09642688
61	0x3e8bdc47	0.27316496
62	0xbe5b3f53	-0.21410875
63	0xbdd7ed9c	-0.10543367
64	0x3d1efc96	0.038815103
65	0xbe4b92db	-0.1988024
66	0x3ec5901e	0.38586515
67	0x3e12a0f8	0.14319217
68	0x3e1f1d59	0.15538539
69	0x3e68ab7b	0.22721665
70	0xbd279bd0	-0.04092008
71	0x3ea0ed60	0.31431103
72	0x3e218236	0.15772328
73	0xbc36b425	-0.011151348
74	0xbd216f98	-0.039413065
75	0x3eb8d6cb	0.36101374
76	0x3e9f79b7	0.3114755
77	0x3e585d8c	0.21129435
78	0xbcfcd73c	-0.03086435
79	0xbe45e5fb	-0.19326012
80	0x3e998a6e	0.29988426
81	0x3cf55954	0.029949822
82	0xbd044b2d	-0.032298256
83	0xbd4a3392	-0.049365588
84	0xbd078e7d	-0.03309487
85	0xbdcedbd7	-0.10100525
86	0x3e17ee8c	0.14837092
87	0x3eab5978	0.33466697
88	0xbe938e97	-0.28819725
89	0x3ec47d43	0.38376817
90	0xbd3be9ea	-0.045877375
91	0xbe6a494f	-0.22879528
92	0xbe9efb9f	-0.31051347
93	0x3ddad99f	0.10686039
94	0x3eb350e6	0.35022658
95	0x3eb45c32	0.3522659
96	0xbe41b5ec	-0.18917054
97	0xbe52dee7	-0.20592843
98	0xbda5a171	-0.08087433
99	0x3dbafa38	0.09129757
100	0xbdd13ad2	-0.10216297
101	0x3cb9246a	0.022600371
102	0x3e8454bb	0.25845894
103	0xbd7ef77f	-0.06224775
104	0xbe620920	-0.22073793
105	0x3ef89490	0.48550844
106	0xbe8f3874	-0.27972758
107	0xbe32250a	-0.17396942
108	0xbf036a44	-0.51334023
109	0xbc84accd	-0.01619568
110	0xbeb4069f	-0.35161301
111	0xbdd8fb09	-0.10594756
112	0xbe9d90d3	-0.30774555
113	0x3d3c28f8	0.04593751
114	0x3d2589e0	0.04041469
115	0xbea6fab8	-0.32613158
116	0x3e9e5ca6	0.3093006
117	0x3e44a4c7	0.19203483
118	0xbe12d613	-0.14339475
119	0xbe06157c	-0.13094133
120	0x3ea5a3cb	0.32351527
121	0x3eb54880	0.35406876
122	0x3e6e8fe6	0.2329708
123	0x3e79db0c	0.24399966
124	0xbdefb954	-0.117052704
125	0xbd970ea5	-0.0737584
126	0xbed11467	-0.40835878
127	0xbe587cd5	-0.2114137
128	0xbd022235	-0.031770904
129	0x3e8fba9c	0.2807206
130	0x3e44bc35	0.1921242
131	0x3e2bfd9f	0.16795968
132	0x3dd1d627	0.102459244
133	0xbe0c7a08	-0.13718426
134	0xbdebf262	-0.1152084
135	0xbe37b6f4	-0.17940885
136	0x3e5e07ae	0.21682617
137	0xbeac5f66	-0.33666533
138	0xbeafc165	-0.34327236
139	0x3e46b0b0	0.19403338
140	0x3dcdbeb9	0.10046143
141	0x3e836d46	0.25669307
142	0x3db8b603	0.09019091
143	0x3d4d3b1f	0.05010521
144	0x3dc74f33	0.09731903
145	0xbe96a2fa	-0.29421216
146	0xbe3ef895	-0.18649514
147	0xbda663e6	-0.08124523
148	0x3e885bda	0.26632577
149	0xbccd1685	-0.025035152
150	0xbe3d9665	-0.18514402
151	0x3d529187	0.051408317
152	0xbe3fcac5	-0.18729694
153	0x3e333e8e	0.17504331
154	0x3eee3ca7	0.4653065
155	0x3e5af4eb	0.21382491
156	0xbede114b	-0.43372568
157	0xbe87568c	-0.26433218
158	0xbd370a5e	-0.04468762
159	0xbe4580db	-0.19287436
160	0xbe5d8f57	-0.21636711
161	0xbecc15be	-0.39860338
162	0x3cb4301a	0.021995593
163	0xbd99d8bb	-0.07512041
164	0x3e200e4f	0.15630458
165	0xbea60ffd	-0.32434073
166	0xbe91c792	-0.28472573
167	0xbe018a5b	-0.12650435
168	0xbe849b6a	-0.25899822
169	0x3e940a5a	0.28914148
170	0x3d73f91d	0.059563745
171	0xbeb12d1e	-0.34604734
172	0xbdc91088	-0.09817606
173	0x3ee7b9f9	0.45259073
174	0x3ecc9507	0.3995745
175	0xbc9d83d8	-0.019227907
176	0xbe944227	-0.2895672
177	0xba49bd46	-0.00076957454
178	0xbd8ca9d1	-0.068683274
179	0xbe81560f	-0.2526097
180	0xbcfc5981	-0.030804398
181	0xbd600d30	-0.054700077
182	0xbe20bd21	-0.15697147
183	0xbd672203	-0.05642892
184	0xbe28764a	-0.16451374
185	0x3e13aec5	0.14422138
186	0x3db4c75b	0.088270865
187	0x3dedc6df	0.11610197
188	0x3de61802	0.11235048
189	0xbe7dc816	-0.24783358
190	0x3e5084a0	0.20363092
191	0xbe52106f	-0.20514081
192	0xbda805c5	-0.082042255
193	0x3e7f8d62	0.24956277
194	0x3e698468	0.22804415
195	0xbea1cafd	-0.3160018
196	0x3e89fd83	0.26951227
197	0xbe582e0b	-0.21111314
198	0x3d11334e	0.03544932
199	0x3e152c19	0.14567603
200	0x3e6a95cd	0.22908707
201	0xbd3cb27e	-0.04606866
202	0xbe4832f2	-0.19550684
203	0xbe87930f	-0.26479384
204	0xbeb6677e	-0.35625833
205	0x3df280c1	0.11840964
206	0x3d8be045	0.068298854
207	0xbea4000b	-0.32031283
208	0x3eb5dfa7	0.35522196
209	0x3ddb27ce	0.107009515
210	0xbbb7fa95	-0.0056145885
211	0x3e154687	0.14577685
212	0xbe26dbc9	-0.16294779
213	0x3d274d1b	0.040845018
214	0xbd297755	-0.04137357
215	0x3e576f81	0.21038629
216	0xbde91682	-0.11381246
217	0x3e7c1705	0.24618156
218	0xbe76c27a	-0.24097624
219	0x3d0c1a7a	0.034204938
220	0xbe5b3b6a	-0.21409383
221	0xbea63db8	-0.32468963
222	0xbee1fde8	-0.44139028
223	0x3eba5c49	0.36398533
224	0xbe18d215	-0.1492389
225	0xbe0b8585	-0.13625152
226	0xbe43e709	-0.19131102
227	0xbedf1605	-0.43571487
228	0x3e330403	0.17481999
229	0x3e0448c1	0.12918378
230	0xbead9672	-0.33903843
231	0x3e638727	0.22219525
232	0x3e49cf9e	0.19708106
233	0x3e01b820	0.12667894
234	0xbe9ee69c	-0.31035316
235	0x3efcfe9d	0.49413005
236	0xbe5ab7dc	-0.213592
237	0xbe5f4283	-0.21802716
238	0xbd810558	-0.06299847
239	0x3dda58ed	0.106614925
240	0xbda6f98d	-0.08153067
241	0x3e236fbe	0.15960595
242	0x3e98ef0a	0.29869872
243	0x3da368f7	0.07979005
244	0xbdd25777	-0.10270589
245	0x3db2b6b8	0.08726257
246	0x3eb69607	0.35661337
247	0xbe069575	-0.13142951
248	0x3dc5ef96	0.09664838
249	0xbe038d45	-0.12846859
250	0xbe99528e	-0.29945797
251	0xbe7fc976	-0.24979195
252	0xbe382aef	-0.17985128
253	0xbd34d332	-0.044146724
254	0xbec6035f	-0.38674447
255	0xbe0148cb	-0.12625425
