examples/mujoco_Go1/nn_params/Go1JoystickFlatTerrain/hidden_3_kernel.npy (npy, 12416 bytes, 1 tensors)

array f4 [128, 24]
00000000: 7a22 f9bc 5ce5 ee3d 21d7 07bd f589 88bc
00000010: e046 3dbd 38ca 1b3d 696a 153d 32cb 85bd
00000020: 124a 123e a91d 43bd df2c df3d c838 40bd
00000030: c7d5 ccbd af2e 763d 5480 dcbc 2175 c4bd
00000040: 8485 7bbd 06a1 c2bd 4cc5 e2bc fb0e 07bd
00000050: c251 ca3c 33d3 a8bd ae41 0d3d 7478 4b3c
00000060: b23d 363d 9061 223c c053 debd 6b17 9cbd
00000070: 212a f63c 2b57 a53d 864f f03b 63da a23d
00000080: 21cc ac3d 10e2 a43b d387 1bbc fb5c 22be
00000090: bc72 82bc f138 14bd 78c4 c2bc afda 733c
000000a0: 8e10 12bd f702 6cbd 38e2 0bbd d38d f1bc
000000b0: e630 263d f89e 86bd 9d71 c6bd 47c3 ed3c
000000c0: 099c 6b3c 1987 a0bb cf6b ea3d 78b3 f93c
000000d0: 9ad0 cbba 25f1 20bc 3178 4abc ea81 6cbc
000000e0: b7c1 aa3c 7642 333c e038 cabc 9d1d ee3c
000000f0: 7526 5abc d12f 8cbd 1787 343e e6be c53d
00000100: e7c6 f03d 3f40 623d e483 ad3d a392 953d
00000110: fb69 ad3d e376 2c3d 71fa f53c fdd0 b73d
00000120: 5122 703d 6bdb dc3d 88a2 30be 0674 9cbd
00000130: 4ac1 f63d 455b 953d ac85 9c3d 7ab0 923d
00000140: a1d2 bc3d 2f29 383c c375 083d e3f6 1bbe
00000150: 5e07 5b3e c65d f03d 1869 223d 39cc 7f3e
00000160: f97b 9c3d 24f8 693e 7092 963e 300d ac3d
00000170: 439e 3c3e 848a 9d3e d3df af3e 13c2 423e
00000180: 11a7 f1ba 1f90 05bc 85e2 973d 67e4 a8bc
00000190: 5c44 e3bd afde d43b 02ca 22bd cf02 ab3b
000001a0: fca0 66bd 9905 8abd 999c 623d 6a60 8a3c
000001b0: 0f48 debd de49 103d 9034 1b3d 5227 14be
000001c0: 6671 b7bd 356b 77bd c38d f7bd 5e15 abbd
000001d0: 58dd 94bd f200 8bbd 7bce 9abd 7c02 033b
000001e0: 74e5 77bd 62ce 383c 831a 00be 3215 10bd
000001f0: 91ec a9bc daf1 cd3d a3de e2bb e000 43bc
00000200: 9b66 b13d 6bea 91bb 78f1 32bd 20ae ddbd
00000210: 5a98 173c 95e7 6abc 3d64 bd3d bcdc 75bd
00000220: 88d8 a73c 33ce 243e 9081 68bd 708a 5fbd
00000230: 17cf 823d 96a7 42bd 1d19 debd 86f5 023e
00000240: 716b 5c3d 75b3 5d3d ef45 9e3d 78ac 49bd
00000250: 8c94 663d 36e5 a83d a783 8cbd 3b48 03bd
00000260: 683e 4b3d 488b 283d 63ae 1bbc ae28 e13d
00000270: 9b98 06be 94ac 19be f965 c6bd 16bf c8bd
00000280: c5e6 36be c385 a1bd becb 16be b43b 6dbe
00000290: fcb3 4abe b333 19be fbbb 5abe dc64 ffbd
000002a0: ce2a 413c 252b a43d d021 9e3d 2dc5 a23c
000002b0: 6d19 fdbc 2480 133d 3e8f 973c 0353 9bbc
000002c0: 12e8 5cbd fff9 26bd e9a6 803d 4146 0d3e
000002d0: 88d9 6dbd 2f61 71bd 6c73 13bc a5e3 f3bd
000002e0: ca09 1bbd 206c bfbc 9fef 78bd acd8 14bd
000002f0: 291e 303d 8486 90bd 38ad cc3c 845d adbc
00000300: 0961 0a3d 9ffc 8b3c 77f7 26be 1b87 f83c
00000310: c522 363e 9367 afbd be59 febb 8d09 88bd
00000320: 1a8e 67bd 08eb f1bd a280 c33d 9262 0e3d
00000330: 2157 5a3e 126e e9bb 1773 623e fd4c b33e
00000340: 7b00 713e 2096 423e b0e3 9b3e 69ba 503e
00000350: 6294 883e f20f 883e a15d b13e b06e e93d
00000360: 0bc6 4e3c b9cb 063d c4e2 d8bc 620c 513d
00000370: 8f1e 70bc 15da 113e aae4 ecba d445 20bd
00000380: 53be 933d 716d 07bd 2aa4 4ebd 3ea3 783b
00000390: 17fb 553d 1431 903d 787f 153c dd8f 9c3d
000003a0: 2359 e23d 8381 2f3e 18fb d03c 24ca 623d
000003b0: 6c65 333b 5f88 413d ba54 5ebc deaa 98bd
000003c0: 0b90 d53c b2cd 56bb c21a 18bd 2208 b43a
000003d0: 786f b43c 79e7 d3ba b5a7 203d ccbd 2d3a
000003e0: 59d6 b53d e3a6 32bd c77b 813d 4b4a cfbd
000003f0: 1ee7 593d c12b 2e3c 6299 073e 097d 96bc
-0.030411948 0.116648406 -0.033164147 -0.016667346 -0.04621017 0.038034648 0.036478434 -0.06532897
0.14286068 -0.047635708 0.1089723 -0.04692915 -0.10001712 0.060103115 -0.02691666 -0.09592653
-0.061406627 -0.09503369 -0.02768197 -0.03297327 0.024697188 -0.08243408 0.034486465 0.012418855
0.04449243 0.009910956 -0.10855818 -0.07621654 0.030049386 0.080732666 0.0073336987 0.0795181
0.08437372 0.0050318316 -0.009492832 -0.15855782 -0.01592385 -0.036187116 -0.023775324 0.014883681
-0.03566032 -0.057620015 -0.034151286 -0.029486572 0.040573977 -0.0657329 -0.09689639 0.02902378
0.014380463 -0.0048989174 0.11446344 0.030481085 -0.0015549839 -0.009823118 -0.012357757 -0.014435271
0.020844324 0.0109411385 -0.024685323 0.029066855 -0.013314833 -0.06845058 0.17629658 0.096555516
0.117566876 0.05523705 0.08472422 0.07303359 0.0846748 0.042105567 0.030026646 0.08975408
0.058626477 0.10784038 -0.17249501 -0.07639317 0.12048586 0.07292799 0.076426834 0.071625665
0.09219862 0.011240288 0.03331543 -0.15230899 0.21389529 0.11736636 0.039651006 0.24980249
0.076408334 0.22848564 0.29408598 0.08400953 0.18419747 0.30769742 0.34350452 0.19019346
-0.001843663 -0.008152037 0.07416252 -0.020616723 -0.11097023 0.0064962725 -0.03974343 0.0052188407
-0.05630587 -0.06739349 0.055325124 0.016891677 -0.10853588 0.035226695 0.037891924 -0.14468125
-0.08957176 -0.060404975 -0.12087586 -0.08353685 -0.072687805 -0.0678729 -0.07558914 0.0019990494
-0.060521558 0.011279674 -0.12510113 -0.035176463 -0.020742686 0.10055895 -0.006923513 -0.011902064
0.086621486 -0.0044529936 -0.043687314 -0.10824227 0.009252632 -0.01433744 0.092476346 -0.06002496
0.020488992 0.16094284 -0.056764185 -0.054575384 0.063871555 -0.047523104 -0.10844634 0.12788972
0.0538134 0.05412622 0.077281825 -0.049236745 0.05629401 0.082468435 -0.06861048 -0.032051306
0.049620062 0.041148454 -0.009502026 0.10994087 -0.13144152 -0.1500724 -0.096874185 -0.09802072
-0.17861469 -0.07886841 -0.14726159 -0.23167306 -0.19795221 -0.14961128 -0.21360771 -0.12470409
0.011789991 0.08016042 0.07721293 0.019869411 -0.030895913 0.036010876 0.01850092 -0.018960482
-0.053932257 -0.04076576 0.062818356 0.13796331 -0.058068782 -0.058930572 -0.008999687 -0.11908654
-0.037851132 -0.023366988 -0.060775395 -0.036339447 0.042997513 -0.07056907 0.02498494 -0.021162756
0.033783946 0.017088233 -0.16305338 0.03033786 0.17786701 -0.08564677 -0.007762163 -0.06642447
-0.056532003 -0.11812407 0.09546019 0.034761973 0.213223 -0.007123717 0.22114216 0.35019675
0.2353534 0.1900258 0.3044715 0.2038361 0.26675707 0.26574665 0.34641746 0.11398065
0.012620459 0.03290913 -0.026475318 0.0510372 -0.014655723 0.14243348 -0.0018073518 -0.039129093
0.07214036 -0.033063356 -0.050449528 0.0037939097 0.05224141 0.07040611 0.009124629 0.07644627
0.11052158 0.17139249 0.025510356 0.055368558 0.0027373685 0.047249194 -0.013570005 -0.07454465
0.026069662 -0.0032776413 -0.037134893 0.0013735334 0.022025809 -0.0016167007 0.039222438 0.0006627708
0.08878774 -0.043616187 0.06322437 -0.10121592 0.053198926 0.010630549 0.13242105 -0.018370168
