examples/mujoco_Go1/nn_params/Go1JoystickFlatTerrain/hidden_1_kernel.npy (npy, 524416 bytes, 1 tensors)

array f4 [512, 256]
00000000: 18e8 3d3d c6f5 1ebd 6ea1 96bd 965f c93c
00000010: 2e04 44bd a5c1 1dbd 4139 113e c91a 913d
00000020: 4f33 2bbd 960f b8bc 7640 353e 8309 3e3e
00000030: 153b 103c cb0c 08be be34 af3d 0317 76bd
00000040: d84d a7bd a972 723b c61d bfbd 05cb 0f3c
00000050: 64ed b33d ac66 c43d f9f6 393e ef96 823d
00000060: bd0a d53c 4a31 303d 6ec6 08be b70c 2dbd
00000070: dd61 ac3c 8a80 01bd b38e 21bb 0661 1b3e
00000080: 1b7d f93c 00a7 833c 2f57 1fbe 504c 4f3e
00000090: e77a ccbd 3f21 d83d d9ca af3d c592 c7bc
000000a0: abfa afbd d282 4a3d 623d a43d 4246 493e
000000b0: b632 af3d 9407 d63d c4ab 83bd 1940 903d
000000c0: 8afd b43d cf26 743d 0162 b7bd 0389 093d
000000d0: 3ae5 18be 04cc b93d 180d feb9 bbb7 0ebd
000000e0: 5ad2 353b 0b38 1d3e 9f6d 973d c7d4 ac3d
000000f0: a70c 563c 8bcf 663d 8c74 ce3c 5e54 153c
00000100: 2b74 293e 49bb c73d 6a4b 073e 1768 29bd
00000110: 6b54 d0bd 31d2 79bd c7c2 103e 31b2 2fbe
00000120: d2fc 8f3d e579 993d 7382 1abe 0c30 193d
00000130: 9b22 c23d 2090 153e 1f1a bc3d ef53 b83c
00000140: 1b64 b83c 6f68 393e 9115 b33b 1bb7 3fbd
00000150: de7e 413d 339a 21be 78cd 7bba ff8e abbb
00000160: 948f 343e c287 863b ad88 653d d792 443d
00000170: a445 7f3d 9e41 9ebb dbb2 013d a15c bfbc
00000180: ec0c ac3d e0e0 7e3d 94cb 5e3d 85ca 64bd
00000190: 97b9 b5bd c9b1 503e 47b5 8cbc 2899 473e
000001a0: 75a6 183c 43b7 603e bcf4 f4bc da04 d7bc
000001b0: 6f24 2aba 481c d6bd 8b37 cdbb 1257 ba3c
000001c0: 2600 b83d b0da 91bd 2efb 5abb ef4b 6d3d
000001d0: fc04 f23c 5b56 973d e0f8 8dbd 0965 1dbc
000001e0: 952e 2a3e 043b 6b3e e298 613d a9be 193e
000001f0: ac93 94bd 56c2 543d f147 ca3b 69c5 5e3d
00000200: c0b0 1f3e 46f8 403e c494 bb3d 6b54 f33d
00000210: a056 ea3b 1317 883c 6c02 683d d4d1 0b3d
00000220: 9a1a 823e e449 623e 784e c938 9501 eabb
00000230: 90e5 9d3d 8731 0a3d 205a 40be d6ec 07be
00000240: 66a1 213e 7485 113c 391a 003d 63ad ff3d
00000250: b1e2 0a3e b088 e63d 5d2f 553c adeb 9abd
00000260: 0c7e 3a3c dd06 54bd ad68 703d 26b6 023d
00000270: 10d9 723c be0f da3c ce5f f93d b47e 1c3e
00000280: 2daa 913d 7726 b0bd d27d 143e e976 e2bc
00000290: d0fe 82bd 08c3 b43c 3feb 133e c4b9 533c
000002a0: 498c f63d 3e37 a33d 25db 153e 08b8 69bd
000002b0: be6a 95bc c364 71bc adfc e6bb e2cb 243d
000002c0: 8696 22be 8614 553c 5a33 37bd 4a53 f339
000002d0: e75c 423d b21e 333e 6e73 633c 0815 233d
000002e0: 7880 89bc 0a3e 093b 7f12 0b3d 703b b13c
000002f0: 0b4a 92bd 7a94 513e dbb5 723e 5074 463d
00000300: b4eb 03be 4e4f 963e 6c47 df3c 78c8 813c
00000310: b0b8 e43d 64ad dbbd f65a 7fbd 4ab4 153e
00000320: c57e ebbc 0022 bfbc caae f2bd 1314 423e
00000330: c1a6 443e 0c28 f53c 0114 343e 6bf7 7a3d
00000340: a02a 30be c6fd 403e 5d1f 18be c14e 12bd
00000350: 4882 06bd 1f55 c03d 1c65 593c ec98 f53b
00000360: 85d9 d03d ec0f 84bd 2c8a b53d 1e19 ac3d
00000370: fa61 45bd 0868 823d 7451 dbbd 04c0 293e
00000380: 381b 8e3d 979a cb3d d906 9e3d 7edb 0f3e
00000390: 530a 2bbd 3ea4 043e fe17 873e 4a97 27bb
000003a0: 825f bebd 95b7 9d3d 51ee 0c3e 6071 a13c
000003b0: f6e5 f63c dfb6 2b3c eb42 0bbd 168c 653d
000003c0: 0298 bd3d f39a 1dbd cb64 8a3d 0e23 753d
000003d0: 68bd c3bd 7abf 483d 7768 283e 66fb 493d
000003e0: 76e5 123e e1e1 cbbc f7e3 0f3e 7ff8 823d
000003f0: 7e5e 64be f82c a53d 6406 5a3e a36f 4d3d
0.04636392 -0.038808607 -0.07355009 0.024581712 -0.04785555 -0.038514752 0.14181997 0.07085187
-0.04179698 -0.02246837 0.17700371 0.18558316 0.008803149 -0.1328613 0.08554982 -0.06008054
-0.081691444 0.0036994612 -0.09331851 0.008776431 0.08785513 0.095898956 0.18160619 0.063764445
0.026006097 0.043015756 -0.13356945 -0.042248454 0.021042759 -0.031616725 -0.0024651706 0.1517373
0.030455163 0.016070843 -0.15560602 0.20243955 -0.09984379 0.10553216 0.08583612 -0.024361977
-0.08592733 0.049441166 0.0801952 0.19655707 0.08554594 0.10450664 -0.06429246 0.07043476
0.08837421 0.059607323 -0.0895424 0.03357793 -0.14931193 0.09072116 -0.0004845641 -0.034843188
0.0027743788 0.1535341 0.073939554 0.084390216 0.01306454 0.056350272 0.025202058 0.009114353
0.16548221 0.09752519 0.13212362 -0.041359033 -0.101723514 -0.06099147 0.14136802 -0.17157818
0.070306435 0.07493953 -0.15088825 0.037399337 0.09479257 0.1460576 0.0918467 0.02250096
0.022508672 0.18106245 0.0054652174 -0.046805482 0.04724013 -0.15781479 -0.00096055074 -0.0052355523
0.17632896 0.004105539 0.056038547 0.0479916 0.062322274 -0.0048295995 0.03166471 -0.023359599
0.08400902 0.062226176 0.054393366 -0.0558572 -0.08873289 0.2038032 -0.017176284 0.19492018
0.00931703 0.21944909 -0.029901855 -0.02624743 -0.00064904144 -0.10454613 -0.0062627248 0.022746596
0.08984403 -0.071217895 -0.0033413875 0.057933744 0.029543392 0.07389518 -0.06932235 -0.009606608
0.16619332 0.22971731 0.05507744 0.15014137 -0.07254729 0.051943146 0.006173127 0.054387484
0.15594769 0.18844709 0.09159234 0.11881336 0.00715144 0.016612565 0.056642935 0.034135655
0.2541092 0.220985 9.599043e-05 -0.007141302 0.07709801 0.03373864 -0.1878438 -0.1327394
0.15784225 0.008881915 0.031275008 0.12484243 0.13563038 0.1125654 0.013011781 -0.07564483
0.011382591 -0.051764358 0.058693577 0.03191199 0.01482226 0.026618835 0.121764764 0.15282708
0.071125366 -0.086010866 0.14501122 -0.027644591 -0.06396258 0.022065654 0.14445208 0.012922708
0.12038476 0.07969521 0.14634378 -0.05706027 -0.018239375 -0.014733496 -0.0070491643 0.0402335
-0.15877733 0.013005381 -0.044726707 0.00046410627 0.04745188 0.17492178 0.013882501 0.03981498
-0.016784891 0.002094152 0.033953186 0.021634787 -0.07143029 0.20466796 0.23702185 0.048450768
-0.12882882 0.2935738 0.027255736 0.015842661 0.11168039 -0.10726431 -0.062342606 0.14619556
-0.028746972 -0.023331642 -0.118497446 0.1895297 0.19204237 0.029926322 0.17585756 0.061271112
-0.1720376 0.18846807 -0.14855714 -0.035719637 -0.03283909 0.093912356 0.013268735 0.0074950363
0.101977386 -0.06448349 0.08864245 0.08403228 -0.04818914 0.06367499 -0.10708895 0.16577154
0.06938785 0.09941595 0.0771615 0.14048573 -0.041757893 0.12953278 0.26385492 -0.0025572353
-0.092955604 0.07701031 0.13762785 0.019707382 0.03013895 0.010480612 -0.033999365 0.0560418
0.09257509 -0.03847785 0.06757506 0.059847884 -0.09557611 0.04901073 0.164461 0.049312018
0.14345345 -0.02488798 0.14051805 0.06395053 -0.22301671 0.08065218 0.212915 0.050155293
