examples/mujoco_Go1/nn_params/Go1JoystickFlatTerrain/hidden_2_kernel.npy (npy, 131200 bytes, 1 tensors)

array f4 [256, 128]
000000 c3 f6 a3 3b de 44 38 3c 4b 63 06 bd 23 2e d8 bc
       0.0050037815 0.011246888 -0.032809537 -0.026389187
000010 2a 6a 46 bd f0 5f c4 3d 9f f8 ec bc fa fa 1a 3d
       -0.04844109 0.09588611 -0.028927146 0.037837006
000020 59 f6 90 3d b6 ee 46 be e9 3c 0f be 99 bc 49 3e
       0.07078237 -0.19426998 -0.13988079 0.1970085
000030 8a 86 51 bd 06 1d c2 3d 0e ce 31 3d 23 80 07 bd
       -0.051153697 0.09478192 0.0434094 -0.033081185
000040 84 39 e8 3c 70 9e 7a bd af 8a 8a bc 8c ae 1f 3c
       0.028347738 -0.061186254 -0.016911833 0.009746205
000050 3a c0 9e 3d 1d 0f 90 3c bb 65 be bd d1 7c 58 be
       0.07751508 0.017585332 -0.09296747 -0.21141364
000060 38 70 8b 3b aa 5f 0e be 3d 23 8c be 56 3a 03 bd
       0.004255321 -0.1390368 -0.27370635 -0.032038055
000070 2f 01 83 3c 47 59 db be 64 4a 0b be ca e2 0c 3e
       0.015991775 -0.4284155 -0.13602597 0.13758388
000080 ee b0 4a bd fa e3 25 3d 52 81 ea bd 0c f0 64 3d
       -0.04948514 0.04050062 -0.11450447 0.05589299
000090 95 56 57 bd ca af 7b 3c e9 ec 39 bd 67 30 97 3d
       -0.052572805 0.015361736 -0.04539195 0.07382279
0000a0 ee 70 ff bd f1 f1 72 3d ee 19 15 bd 6e 41 07 be
       -0.124727115 0.059312765 -0.03640168 -0.13208553
0000b0 96 79 ce 3c 07 ad 31 3d 4c 54 d7 bd bd 93 a1 3d
       0.025204461 0.043377902 -0.10514125 0.07889507
0000c0 84 e4 de bd 29 48 83 3a 7d 78 53 bd ac b1 d0 bc
       -0.1088343 0.0010016012 -0.05162858 -0.025475346
0000d0 53 a5 e8 bd 0c 8e 4c ba 2a f3 f7 bd 8a 37 23 bd
       -0.11359658 -0.0007803149 -0.12106927 -0.039847888
0000e0 1c 57 23 bd d8 85 1a 3d d0 01 33 3b 37 30 32 be
       -0.039877996 0.0377253 0.0027314313 -0.17401205
0000f0 7b c4 31 be a7 22 86 bd e1 be be 3c 42 fa f4 3c
       -0.17360108 -0.06549578 0.023284378 0.029904488
000100 72 80 37 3d 18 4b 0f be 9d 6e d0 bc 1d 98 27 3d
       0.04480023 -0.1399349 -0.02544337 0.04091655
000110 c4 4c 58 bd 2d c8 4d 3d ed 12 66 bd 13 32 da 3d
       -0.052807584 0.05023973 -0.056170393 0.10654082
000120 34 d3 ec bc be 1f e4 bc da 0e 6a 3d 3a cf 6a bc
       -0.028909303 -0.027847167 0.05714307 -0.014331633
000130 d0 d4 27 bd 0b ac 45 bd 31 30 a2 be 57 58 fb 3c
       -0.04097444 -0.048259776 -0.31677392 0.030681772
000140 a8 06 ca bd 89 af 3a be 8b af cc 3d 10 8f 9a bc
       -0.09864551 -0.18231024 0.0999442 -0.018867046
000150 55 10 9e bc 6a 86 41 bd a0 a4 b9 3d 19 50 86 3d
       -0.019294897 -0.047247328 0.09064603 0.06558246
000160 47 3b e4 bd 71 24 86 be 11 64 09 bd 01 81 92 bc
       -0.11144119 -0.26199678 -0.033542696 -0.01788378
000170 84 eb c3 bc 36 2c bf 3c c9 81 8b be d9 34 88 3c
       -0.023916014 0.023336511 -0.27247456 0.016626762
000180 15 a6 55 bd e6 bc 01 be 68 bd 85 be c3 28 e5 3d
       -0.05216034 -0.12669715 -0.26121068 0.11189415
000190 43 8c ec bc 62 a9 e7 bc c1 60 02 be 61 6a db bd
       -0.028875476 -0.02827901 -0.12732221 -0.107136495
0001a0 72 69 ae 3d 6d 17 45 3b a1 4c a7 3c 3a a5 4d bd
       0.08516206 0.0030073777 0.020422282 -0.0502064
0001b0 14 03 79 be 4d a4 c1 3a c1 72 d1 3d 3c d2 66 3d
       -0.2431758 0.0014773697 0.10226966 0.05635284
0001c0 1b 65 a2 3d 87 c4 85 3d bb 8f a5 bd 05 d1 9a bc
       0.079294406 0.06531625 -0.08084055 -0.018898496
0001d0 25 30 35 be c3 2a 6a 3d bc 8e 34 b9 3d 52 3c bd
       -0.17694147 0.057169687 -0.0001721931 -0.045976866
0001e0 c1 98 08 bd f7 5f 20 bd 35 b8 d0 3d f5 35 9f 3d
       -0.033348802 -0.03915402 0.10191385 0.07773963
0001f0 90 11 9a bc 72 a4 cb 3d d7 d3 b9 3c 57 d3 e7 3d
       -0.018807203 0.09943475 0.02268402 0.11319607
000200 d1 07 00 bd 20 08 77 bd 6f 56 02 3c 41 c5 17 3e
       -0.031257454 -0.060310483 0.007955178 0.1482134
000210 d3 f1 49 3b 26 95 e8 3d 38 eb c2 bc 0c 2b a8 bd
       0.0030814304 0.11356573 -0.023793802 -0.082113355
000220 be a3 b6 bc b8 fe 1a be cc 90 82 bd d2 36 aa bc
       -0.022294875 -0.1513623 -0.06375274 -0.020778093
000230 cf 3a 2d 3e ec dc 6a 3d 83 72 b7 bd 62 56 c2 bd
       0.16916965 0.057339594 -0.08957388 -0.094891325
000240 c4 de 6f be e0 cc 28 bd 39 5a 7a bd 99 8a 43 3d
       -0.23424822 -0.04121101 -0.0611212 0.0477396
000250 32 bd 82 bc f8 35 18 3d 71 98 ca 3d 2a b4 48 bd
       -0.015959356 0.037160844 0.09892357 -0.048999943
000260 95 c3 bd 3d 1c f2 d7 3d de 8c a8 bd 93 65 7b 3c
       0.0926582 0.105442256 -0.08229993 0.015344041
000270 01 90 db bd cb bf 02 bd 63 1d 82 bd 63 1e f9 bd
       -0.10720826 -0.03192119 -0.06353261 -0.12163999
000280 e3 92 f6 3d 08 a6 c5 3d 8a 18 4a 3e a1 e7 14 bb
       0.12039735 0.096508086 0.19735923 -0.002272107
000290 6a a5 f4 3d a4 fe b8 bd e5 f8 09 3e e2 ed 08 3d
       0.11945613 -0.09032944 0.13473852 0.033429988
0002a0 c8 e6 69 3d d4 ca d2 bd 20 c6 91 3d be b8 c6 3a
       0.057104856 -0.10292593 0.071178675 0.0015161259
0002b0 f5 45 10 be 79 db 3d 3e 0c c3 cb bd 35 ae 27 3d
       -0.14089186 0.18540753 -0.099493116 0.04093762
0002c0 3e 08 a7 bc ab 09 eb bd 6b 6f 98 bd 43 e2 b7 bd
       -0.020389672 -0.114764534 -0.07443126 -0.08978703
0002d0 56 ab 33 be 10 c2 1f bd e3 bf a0 3c 75 1d e2 3d
       -0.17545828 -0.03900343 0.019622749 0.11040775
0002e0 42 5e 08 3e fb 1e 6f bc f1 70 82 be ed bb bf bd
       0.13317207 -0.014594789 -0.25476792 -0.09362016
0002f0 33 f5 05 be 63 29 8c bd fc a4 91 3d 11 64 25 3d
       -0.13081817 -0.068438314 0.071115464 0.040378634
000300 b8 d4 81 3d 19 72 36 3d 5c ea 2e 3d 5f d8 52 3d
       0.06339401 0.044542406 0.04270397 0.05147588
000310 10 b5 86 3c 9e 1d 63 bc 78 b6 4b 3d 03 0f c2 3d
       0.01644376 -0.013862042 0.049734563 0.094755195
000320 1b 64 f4 3b 72 99 e2 3b 2a 3d 7f 3d f4 fb dc 3d
       0.0074582226 0.0069152648 0.06231419 0.10790244
000330 a2 34 6d bd 47 a6 6a bd 67 27 5d bd 18 f6 1f 3e
       -0.057911523 -0.05728748 -0.053992655 0.15621221
000340 7a 44 20 3d be f5 34 bd f5 16 10 3d 09 35 d4 3b
       0.039127804 -0.04417967 0.035178144 0.006476049
000350 59 1c 93 bc 29 c9 b2 bd d1 5b 80 3d 05 85 41 3e
       -0.017957853 -0.087297745 0.062675126 0.18898399
000360 a7 16 92 bd 2a 3e 43 bd 42 c5 88 be c5 e2 3b bd
       -0.07133227 -0.047666706 -0.26712996 -0.04587056
000370 f4 0d 80 3c 55 71 18 3e 94 71 14 be 62 2e 93 bd
       0.015631653 0.14886983 -0.14496452 -0.07186581
000380 2f 1d cc bd a2 ce e8 3c ae c4 ec bd f3 a7 5c 3d
       -0.09966504 0.028418843 -0.11560951 0.053871106
000390 39 86 cb bd 35 71 27 3d e2 75 47 bd 4e ad 66 bd
       -0.0993771 0.040879447 -0.048696406 -0.05631762
0003a0 e7 40 5b 3d 84 9a 84 bd 63 fc 30 3e 2f 86 7d 3b
       0.053528693 -0.06474784 0.17283778 0.0038684716
0003b0 d6 ba ac bd fc 27 7d bd b0 84 a5 3d 96 04 21 bd
       -0.084340736 -0.06180571 0.08081949 -0.039311014
0003c0 86 ab fc 3c 7e 46 26 bd 03 96 6e be f3 ed d1 3c
       0.030843507 -0.04059457 -0.23299412 0.025626158
0003d0 f8 02 60 be 03 b9 0b 3d 91 b7 38 be 6c 1f 18 be
       -0.21876132 0.034111988 -0.18038775 -0.14855736
0003e0 b7 6b 2d 39 c2 4c 24 be ad 6c 14 be 89 e4 49 3b
       0.00016538693 -0.16044906 -0.14494582 0.0030806384
0003f0 38 6a 80 3d 38 11 22 3e f0 2d 02 be 19 11 89 bd
       0.062702596 0.15826881 -0.12712836 -0.06692714
