examples/mujoco_Go1/nn_params/Go1JoystickFlatTerrain/hidden_3_kernel.npy (npy, 12416 bytes, 1 tensors)

array f4 [128, 24]
0	0xba9843b5	-0.0011616858
1	0x3d770489	0.06030706
2	0xbb84dad5	-0.004054407
3	0xbd992828	-0.07478362
4	0xbc0ec6ae	-0.008714361
5	0x3d18acae	0.037274055
6	0xbc987c29	-0.018613892
7	0xbd9ffd7b	-0.078120194
8	0x3e16101b	0.14654581
9	0x3c7e435a	0.015518988
10	0x3da5f2c8	0.081029475
11	0xbd8fd4d6	-0.07023017
12	0xbd3cc902	-0.046090133
13	0xbd529b3f	-0.051417585
14	0xbe09aa71	-0.13443924
15	0x3bda100b	0.0066547445
16	0xbd47d191	-0.048783842
17	0xbdf1fb93	-0.11815562
18	0xbd28d923	-0.041222703
19	0xbc67948a	-0.014134536
20	0x3c3caa66	0.0115152355
21	0xbbcc4d28	-0.0062347837
22	0x3c9fc5c9	0.019503491
23	0x3d23ecde	0.040020816
24	0x3d1e8bd9	0.038707588
25	0x3ccff7ae	0.025386658
26	0xbd6c0b3c	-0.0576279
27	0xbd8ae1e9	-0.0678137
28	0xbceabaaf	-0.02865347
29	0x3d9b6c29	0.07588989
30	0x3d83b638	0.0643124
31	0xbc3d7d40	-0.011565506
32	0x3d83ce53	0.064358376
33	0xb996f1f1	-0.0002879049
34	0x3ca41fc0	0.02003467
35	0xbd52b24d	-0.051439572
36	0xbc6cb2f1	-0.01444696
37	0xbdd8bb70	-0.10582626
38	0xbd18315c	-0.037156448
39	0xbca0d214	-0.019631423
40	0x3d8fa684	0.07014182
41	0xb9fafaa2	-0.00047870452
42	0x3c808719	0.01568942
43	0xbd9c3aa4	-0.07628372
44	0x3c80f4dc	0.015741758
45	0x3ca460d0	0.020065695
46	0xbcbae93e	-0.022816297
47	0xbd50690a	-0.050881423
48	0x3da19071	0.07888878
49	0xbdb9bd43	-0.09069302
50	0x3d7f66c7	0.062353875
51	0xbd4ca0b7	-0.049957957
52	0xbc037eec	-0.008025866
53	0xbc058ba4	-0.008150969
54	0xbc292c4f	-0.010325505
55	0x3d0b596a	0.03402082
56	0xbcd1bd8d	-0.02560308
57	0x3d1ce9d0	0.03830892
58	0xbd845f61	-0.064635046
59	0x3ccc5928	0.024944857
60	0x3d4381c2	0.04773117
61	0x3da40135	0.08008043
62	0x3dc68782	0.09693815
63	0xbce95708	-0.028483883
64	0xbc913d80	-0.01772952
65	0xbdba19b1	-0.090869315
66	0xbbb00b71	-0.0053724577
67	0xbcb62643	-0.022235041
68	0xbca154b8	-0.019693717
69	0xbcc84dd3	-0.024451172
70	0x3c8986e2	0.01678795
71	0x3d81fdcf	0.06347238
72	0x3d84036a	0.06445964
73	0x3db1c774	0.08680621
74	0xbe6d1747	-0.23153411
75	0xbd9e915d	-0.077425696
76	0x3dce4831	0.10072363
77	0x3e05b2f1	0.13056542
78	0x3dff1d22	0.124567285
79	0x3db2fc4e	0.087395296
80	0x3d8f1678	0.069867074
81	0x3c7e2fd6	0.015514335
82	0x3d2ea4cb	0.042637628
83	0xbe02748a	-0.12739769
84	0x3e5047eb	0.20339935
85	0x3de6d503	0.112710975
86	0x3dcdbea7	0.1004613
87	0x3e92f376	0.2870137
88	0x3e343713	0.17599134
89	0x3e64fecc	0.22362822
90	0x3e8f7fbc	0.2802714
91	0x3e04bc4d	0.12962456
92	0x3e41266e	0.18862316
93	0x3ea2085e	0.3164701
94	0x3ea850a0	0.32874012
95	0x3e445157	0.19171654
96	0xbc25d3ff	-0.010121345
97	0xbc779f1e	-0.01511362
98	0x3bdff058	0.006834071
99	0xbc6d1673	-0.014470684
100	0xbcfc4c73	-0.030798173
101	0xbd0c8616	-0.03430756
102	0xbd1b5b81	-0.03792906
103	0x3cec35fe	0.02883434
104	0x3d43398e	0.04766231
105	0xbd3030a8	-0.043015152
106	0x3aae0b91	0.0013278594
107	0xbd794692	-0.060858317
108	0xbdf9fb7b	-0.12206169
109	0xbb469e9a	-0.0030306936
110	0xbd37b10d	-0.044846583
111	0xbe00903a	-0.12555018
112	0xbe195765	-0.14974745
113	0xbe5a5bf1	-0.21324135
114	0xbde71600	-0.11283493
115	0xbe0519f3	-0.1299818
116	0xbd20c9ef	-0.03925508
117	0xbd52ee15	-0.051496584
118	0xbdfd004d	-0.12353573
119	0xbe0848b8	-0.1330899
120	0xbbf2a424	-0.007404821
121	0xbdb34eb4	-0.08755246
122	0xbd3e3322	-0.046435483
123	0xbd452d31	-0.0481388
124	0x3ca35ac6	0.019940745
125	0x3e1fda0b	0.1561052
126	0xbb5461dc	-0.0032406962
127	0x3da11ac9	0.07866437
128	0x3de3c6e4	0.1112192
129	0x3d4ce77a	0.05002544
130	0xbcd63be7	-0.02615161
131	0xbce19879	-0.027538525
132	0x3d17ac85	0.03702976
133	0x3dccdade	0.10002683
134	0x3d95fe0f	0.073238485
135	0x3d12832e	0.035769634
136	0xb9b2392c	-0.00033993402
137	0x3df21fa8	0.11822444
138	0x3c0c4de0	0.008563489
139	0x3ccd0f11	0.025031598
140	0x3cc7f7a3	0.024410075
141	0x3d9a1e95	0.07525364
142	0x3d43b025	0.047775406
143	0x3d801d1c	0.06255552
144	0x3d414ab1	0.047190372
145	0x3d072c58	0.033001274
146	0x3def5244	0.11685613
147	0xbd586b99	-0.052836988
148	0x3d199bed	0.037502218
149	0x3da2da63	0.0795181
150	0xbd8b6f34	-0.0680832
151	0xbcdbf644	-0.026850827
152	0x3d5b5f47	0.05355766
153	0x3d12ec19	0.03586969
154	0xbbebdc06	-0.0071978597
155	0x3dbe1fb0	0.09283388
156	0xbe1fb88d	-0.15597744
157	0xbe24b296	-0.1608375
158	0xbda68a1e	-0.081318125
159	0xbe0602bb	-0.13086979
160	0xbe05a141	-0.13049795
161	0xbdcd6174	-0.10028353
162	0xbe24792f	-0.16061853
163	0xbe76d9b6	-0.24106488
164	0xbe391927	-0.18076001
165	0xbe4ca566	-0.1998497
166	0xbe46b4f6	-0.19404969
167	0xbe3ff829	-0.1874701
168	0x3d0c12d0	0.03419763
169	0x3d30cbd4	0.043163136
170	0x3ce9475d	0.028476411
171	0x3cf94a2d	0.030430878
172	0xbd40763a	-0.04698775
173	0x3d7326eb	0.059363287
174	0x3d4aff30	0.049559772
175	0xbd9da74c	-0.07697925
176	0xbd14346e	-0.036182813
177	0xbc4b5a6f	-0.012411698
178	0xbbb8fd6b	-0.005645444
179	0x3c172ca8	0.0092269555
180	0xbe130e04	-0.14360815
181	0xbdea6ce1	-0.11446548
182	0xbdb3db54	-0.08782068
183	0xbdb5baba	-0.08873506
184	0xbd0fd541	-0.035115484
185	0x3a24e3b8	0.0006290036
186	0xbdae72e2	-0.08518006
187	0xbcf8d161	-0.030373277
188	0xbddaf09b	-0.10690423
189	0xbdc383c4	-0.09546617
190	0xbd9ba9b4	-0.07600728
191	0xbdf71d98	-0.120661914
192	0xbcae2c6d	-0.021261418
193	0xbd4b4e71	-0.049635354
194	0xbde9dbcb	-0.11418875
195	0x3d79d141	0.060990576
196	0x3e3e8dd6	0.18608794
197	0xbe0d1438	-0.13777244
198	0x3d26cd3c	0.04072307
199	0xbcd7e63f	-0.026354907
200	0xbce1541b	-0.027505925
201	0xbd5cf398	-0.053943247
202	0x3b8d89a0	0.0043193847
203	0x3b76ab03	0.0037638552
204	0x3e24d5f0	0.16097236
205	0x3d966f08	0.07345396
206	0x3e48088b	0.19534509
207	0x3e8eecd8	0.27915072
208	0x3e8401c5	0.257826
209	0x3e223ff8	0.15844715
210	0x3e857eed	0.260734
211	0x3e17bd40	0.14818287
212	0x3def2fac	0.116790146
213	0x3e3c79dd	0.18405862
214	0x3e5d8bf8	0.21635425
215	0x3b3eb6cd	0.0029100657
216	0xbc8442cc	-0.016145132
217	0x3d942cdd	0.072351195
218	0x3e20bdd2	0.1569741
219	0x3d2c9f06	0.042143844
220	0xbb1b0ae5	-0.0023657617
221	0x3aee2365	0.0018168507
222	0xbd0845fe	-0.033269875
223	0xbd06ae8b	-0.0328813
224	0xbc90e44c	-0.017686985
225	0xbcc639dc	-0.024197511
226	0xbc4df90a	-0.012571583
227	0x3cb4c7a1	0.022067847
228	0x3d531345	0.05153205
229	0xbc64e1a5	-0.0139698135
230	0x3df8b362	0.121435896
231	0x3d4a7d80	0.049436092
232	0x3d0bc649	0.034124646
233	0x3d7ccee5	0.061720748
234	0x3cbae8e4	0.022816129
235	0x3da68965	0.08131675
236	0x3d6efb4a	0.058345117
237	0x3c772530	0.01508455
238	0x3c06296d	0.008188588
239	0xbd213826	-0.039360188
240	0x3baf33a3	0.0053467317
241	0x3dae5792	0.085127965
242	0xbc053088	-0.0081292465
243	0x3c4b8d78	0.0124238655
244	0x3da47d60	0.08031726
245	0x3c914d4b	0.017737051
246	0x3c1fc56a	0.009751657
247	0xbd19da9d	-0.037562
248	0x3d6af163	0.05735911
249	0xbd6acb80	-0.05732298
250	0x3df0e600	0.11762619
251	0xbe45aeba	-0.19304934
252	0x3e55a4bc	0.20863622
253	0x3cd275c1	0.025690915
254	0x3e668a8d	0.2251379
255	0x3dcac944	0.099016696
