examples/mujoco_Go1/nn_params/Go1JoystickFlatTerrain/hidden_0_kernel.npy (npy, 98432 bytes, 1 tensors)

array f4 [48, 512]
-0.22711854 0.18284343 -0.16034535 -0.012575622 0.037740976 0.087377824 -0.15563211 0.1479407
-0.34795466 0.31029868 -0.21146737 -0.01852636 0.14689359 0.29497644 -0.021241808 0.2211916
-0.17222142 -0.49208063 0.039386407 0.09684369 0.1995186 0.22343273 -0.28204107 0.10583847
0.34383708 0.0085250195 -0.06763862 0.22722112 -0.00851557 -0.026783869 -0.32373643 0.15848392
0.40535188 0.12251537 -0.31107864 -0.040391386 -0.045025405 -0.25540566 -0.33009946 -0.45736435
0.03376997 0.18063146 -0.050393097 -0.29274747 0.06703825 -0.09766641 0.025765214 0.20624876
0.024425475 0.16813752 -0.3801575 -0.2833467 0.06121449 0.07207612 0.20055051 -0.24645291
0.33189553 0.37320596 -0.2693829 -0.20514692 0.1250372 0.10194033 -0.11688169 0.036686156
0.0465425 -0.032813076 0.29094243 0.004254401 0.1633656 0.24046412 0.005693858 0.18147056
0.058652535 0.01656863 -0.012543952 0.4107925 0.039876536 0.12923384 0.026301913 -0.3033208
0.21118021 0.04006094 0.0968844 0.0070393276 -0.14929004 -0.022859832 0.17523997 0.27083695
-0.29680663 0.5088305 -0.13402992 -0.1752559 -0.18138261 -0.0516968 0.28505006 0.54628706
-0.14098522 0.0079769185 0.12751956 0.1897198 0.1133452 0.18183869 0.20739037 -0.04708221
-0.12681304 0.36524668 -0.30863988 -0.028970173 -0.45660302 -0.046137363 -0.31264293 0.08101377
-0.37357947 0.1786973 -0.14862667 -0.29704773 0.4415862 0.31320924 -0.21301599 -0.026961358
0.2278254 0.36602297 0.02361761 0.28310558 -0.012779364 -0.2651392 -0.2710486 -0.18912686
0.051838458 0.42182425 0.13109198 0.07101232 0.20072174 -0.17047352 -0.08690496 0.01375268
0.10422224 -0.2067111 -0.41062576 0.43663254 0.14349687 0.3764172 0.17104091 -0.0045354073
0.049184833 0.05135012 -0.10214689 0.09234256 0.14002891 0.09264613 -0.060000356 -0.11734835
-0.24164657 0.3056321 0.35555443 0.29343346 -0.37743163 -0.0925018 0.030105472 -0.08429786
-0.10702229 -0.17397512 -0.117238425 0.002257582 0.2151172 -0.39856255 -0.29562294 -0.1417027
-0.13162434 0.14078647 0.06352922 -0.31857494 -0.07449895 0.40977392 0.28211433 -0.18210644
-0.095497034 -0.09321807 -0.25664443 -0.19289877 -0.025027527 -0.07772733 -0.21386851 0.003175019
-0.1116349 0.18208735 0.04849222 0.14917842 0.10299372 -0.1682671 -0.08030304 -0.20896953
-0.10397436 0.16642593 0.1297121 -0.31326744 0.27748138 -0.3245831 0.038468655 0.050874908
0.10512954 0.015386059 -0.2787449 -0.23081304 -0.3508425 -0.0049263164 0.07661467 -0.12567171
0.19579595 0.071436785 0.18823694 0.18565653 -0.18562531 0.19505702 -0.029372972 0.2555348
-0.1345749 0.39854634 -0.04523732 0.0038915148 -0.5109722 -0.3425817 -0.23463331 0.2875676
-0.27215382 -0.22708689 -0.19260843 -0.35609025 0.2785977 -0.011041795 -0.26559383 0.18001015
0.27687597 0.08761832 -0.37318462 0.47221035 -0.18390301 -0.35824937 -0.11618293 -0.17373283
-0.11666752 0.15568559 0.3934701 0.35383108 -0.21371853 0.1696593 0.22793196 -0.07710518
-0.07825324 -0.101145566 -0.25362223 -0.12396636 -0.35171306 -0.025455264 -0.33274683 -0.15022548
00000000: c391 68be 4f3b 3b3e 9231 24be fb09 4ebc
00000010: 4896 1a3d 25f3 b23d 065e 1fbe c47d 173e
00000020: 1d27 b2be 78df 9e3e e78a 58be 98c4 97bc
00000030: 466b 163e 2707 973e 4d03 aebc 0d80 623e
00000040: d05a 30be fef1 fbbe a453 213d fc55 c63d
00000050: 9b4e 4c3e 8dcb 643e b067 90be d7c1 d83d
00000060: 6a0b b03e 86ac 0b3c 1e86 8abd a7ac 683e
00000070: e484 0bbc d869 dbbc c8c0 a5be 9c49 223e
00000080: 488a cf3e 57e9 fa3d b345 9fbe 7071 25bd
00000090: 8f6c 38bd 88c4 82be cc02 a9be a92b eabe
000000a0: 6152 0a3d 74f7 383e fe68 4ebd ffe2 95be
000000b0: 5a4b 893d 5405 c8bd 9211 d33c e032 533e
000000c0: ef17 c83c 3e2c 2c3e 01a4 c2be d212 91be
000000d0: 0cbc 7a3d a59c 933d 1d5d 4d3e 275e 7cbe
000000e0: 36ee a93e da14 bf3e 8eec 89be 0912 52be
000000f0: c009 003e 17c6 d03d ab5f efbd 3944 163d
00000100: 59a3 3e3d 0167 06bd 68f6 943e 8168 8b3b
00000110: 5049 273e 3a3c 763e 8b93 ba3b 6bd3 393e
00000120: a43d 703d efba 873c 2685 4dbc 6553 d23e
00000130: 9455 233d e055 043e 1c77 d73c dd4c 9bbe
00000140: a03f 583e f116 243d 546b c63d 29aa e63b
00000150: 7ddf 18be 8b44 bbbc 1b72 333e 24ab 8a3e
00000160: 0af7 97be b742 023f 243f 09be 4876 33be
00000170: 5dbc 39be 06c0 53bd 15f2 913e 78d9 0b3f
00000180: 6e5e 10be 9fb1 023c 7d94 023e e845 423e
00000190: 8721 e83d ec33 3a3e 245e 543e 47d9 40bd
000001a0: 47db 01be 9d01 bb3e 0c06 9ebe db52 edbc
000001b0: dfc7 e9be 88fa 3cbd bc12 a0be 8cea a53d
000001c0: cf45 bfbe 6dfc 363e 9731 18be a416 98be
000001d0: 9617 e23e f65c a03e dd20 5abe 11de dcbc
000001e0: 104b 693e 5d67 bb3e b879 c13c 37f3 903e
000001f0: 8a60 51bc 53c0 87be e2c6 8abe 79aa 41be
00000200: 9054 543d 59f9 d73e fa3c 063e e86e 913d
00000210: 008a 4d3e 9c90 2ebe 3afb b1bd ec52 613c
00000220: 7872 d53d 13ac 53be 8a3d d2be 4d8e df3e
00000230: d8f0 123e c1b9 c03e 5925 2f3e c19d 94bb
00000240: 0976 493d 8154 523d 6332 d1bd 191e bd3d
00000250: bd63 0f3e 41bd bd3d efc2 75bd 5554 f0bd
00000260: 3372 77be d07b 9c3e 3b0b b63e e93c 963e
00000270: b83e c1be 9571 bdbd c09f f63c 5ba4 acbd
00000280: 812e dbbd 8926 32be b31a f0bd f1f3 133b
00000290: af47 5c3e 6410 ccbe e45b 97be 831a 11be
000002a0: 88c8 06be 542a 103e 9c1b 823d 411c a3be
000002b0: e892 98bd e3cd d13e 4a71 903e 1c7a 3abe
000002c0: f393 c3bd 1ee9 bebd e666 83be 4187 45be
000002d0: 8706 cdbc 822f 9fbd 5900 5bbe fb13 503b
000002e0: d7a0 e4bd 1b75 3a3e c79f 463d 3ac2 183e
000002f0: 5fee d23d 364e 2cbe ec75 a4bd 1cfc 55be
00000300: 82f0 d4bd 8f6b 2a3e 40d3 043e 9764 a0be
00000310: 0a12 8e3e c22f a6be 4f91 1d3d 3562 503d
00000320: 284e d73d cf15 7c3c a7b7 8ebe 415a 6cbe
00000330: a1a1 b3be f06c a1bb 27e8 9c3d 16b0 00be
00000340: bc7e 483e 734d 923d 2fc1 403e bf1c 3e3e
00000350: 9014 3ebe 07bd 473e 969f f0bc 75d5 823e
00000360: 01ce 09be 440e cc3e c54a 39bd c908 7f3b
00000370: 13cf 02bf de66 afbe b743 70be 0f3c 933e
00000380: bf57 8bbe 7789 68be 253b 45be 7651 b6be
00000390: 5ca4 8e3e a5e8 34bc eafb 87be 9554 383e
000003a0: b0c2 8d3e 3c71 b33d 0e12 bfbe 8ec5 f13e
000003b0: 1251 3cbe 766c b7be 51f1 edbd 05e7 31be
000003c0: 61ef eebd 0b6c 1f3e ea74 c93e 5929 b53e
000003d0: 08d9 5abe 2bbb 2d3e ff66 693e 52e9 9dbd
000003e0: 3c43 a0bd 6825 cfbd c6da 81be 13e2 fdbd
000003f0: bc13 b4be 8f87 d0bc cb5d aabe b5d4 19be
