examples/mujoco_Go1/nn_params/Go1JoystickFlatTerrain/hidden_2_bias.npy (npy, 640 bytes, 1 tensors)

array f4 [128]
0	0x3d1bdc6f	0.03805202
1	0x3bdd8ad3	0.006760934
2	0xbda81631	-0.08207358
3	0xbe953547	-0.2914221
4	0x3d6245a7	0.055242207
5	0xbc33664b	-0.0109496815
6	0x3e277622	0.16353658
7	0x3d33ad91	0.043866698
8	0xbeb6d5aa	-0.35709888
9	0xbcb8be64	-0.022551723
10	0xbd90c2cc	-0.070684046
11	0xbcead9ce	-0.02866831
12	0xbde874ac	-0.113503784
13	0xbc1114c7	-0.008855051
14	0x3c2759f3	0.010214317
15	0xbe84d669	-0.25944832
16	0xbe0938ad	-0.13400526
17	0xba947d36	-0.001132882
18	0xbe9c1d87	-0.30491278
19	0xbd96d12b	-0.073641144
20	0xbe4a4641	-0.19753362
21	0xbc2bf611	-0.0104956785
22	0xbe3426bc	-0.17592901
23	0xbc13f0b1	-0.009029553
24	0x3bb40928	0.0054942556
25	0xbd9252db	-0.0714471
26	0xbd41b424	-0.047290936
27	0x3d7413f4	0.05958934
28	0xbeb93208	-0.36170983
29	0xbddff256	-0.10934894
30	0xbda29064	-0.079376966
31	0x3c3296b0	0.0109001845
32	0x3bc31856	0.005953829
33	0xbe97de3a	-0.29661733
34	0xbdca9af0	-0.09892833
35	0xbcd6bfd8	-0.026214525
36	0xbde96dd7	-0.113979034
37	0xbd695bf8	-0.056972474
38	0xbe10ebc4	-0.14152437
39	0xbd4ecd6c	-0.050488874
40	0xbe495ca3	-0.19664244
41	0xbe1af9c7	-0.15134345
42	0xbe65148b	-0.22371118
43	0x3c2a07a7	0.010377801
44	0xbe8570fb	-0.2606276
45	0xbeba9ca0	-0.3644762
46	0xbcfc5b4d	-0.030805254
47	0x3de99b85	0.11406616
48	0xbe792179	-0.24329175
49	0xbba70804	-0.005097391
50	0xbeb1003b	-0.34570488
51	0xbd163510	-0.036671698
52	0xbe5d25cb	-0.21596448
53	0xbb7dc2ad	-0.0038720772
54	0x3bd3d86f	0.00646501
55	0xbeb4c768	-0.35308385
56	0xbe1571e6	-0.1459423
57	0xbcac708d	-0.021049762
58	0xbcf849dc	-0.030308656
59	0xbd414ad4	-0.047190502
60	0x3cba1e05	0.022719393
61	0xbe5d296b	-0.21597831
62	0x3d81548e	0.06314956
63	0xbe735433	-0.23762588
64	0xbd658614	-0.05603607
65	0xbe4ff485	-0.2030812
66	0x3b9b23af	0.0047344784
67	0xbe4249be	-0.18973443
68	0xbcd7cc59	-0.026342558
69	0xbd422e4c	-0.047407433
70	0xbe2bb758	-0.16769159
71	0xbec184e6	-0.37796706
72	0xbd938b34	-0.07204285
73	0x3d3e1cf6	0.046414338
74	0xbd9b61f7	-0.07587045
75	0xbe5e7133	-0.2172287
76	0xbc136fb3	-0.008998799
77	0xbe193708	-0.14962399
78	0x3c235920	0.0099699795
79	0xb8348dde	-4.304747e-05
80	0xbe1a82d1	-0.15088965
81	0x3c12e557	0.008965812
82	0xbea1a1b2	-0.31568676
83	0xbd460b91	-0.048350874
84	0xbc05a179	-0.008156174
85	0xbcf0f80c	-0.029415153
86	0xbd1a0910	-0.0376063
87	0xbdfa5c6b	-0.122246586
88	0xbbc1ed58	-0.005918186
89	0xbcea6aac	-0.028615318
90	0xbd8390a7	-0.064240746
91	0xbcedd3bb	-0.029031625
92	0xbe85fb6f	-0.2616839
93	0x3c256cda	0.010096753
94	0xbdeaeaab	-0.114705406
95	0xbd881678	-0.066449106
96	0xbe4b4236	-0.19849476
97	0xbdc9b025	-0.0984805
98	0xbd63f0e1	-0.055649642
99	0x3cdf65b3	0.027270174
100	0xbccc0426	-0.024904322
101	0xbe12555a	-0.14290372
102	0x3c380467	0.011231518
103	0xbddac051	-0.10681213
104	0xbd0fa5b8	-0.03507015
105	0xbbef4915	-0.007302413
106	0xbeb17f65	-0.34667507
107	0xbcf0e0a4	-0.029403992
108	0xbe54e925	-0.20792063
109	0xbcc3a929	-0.023884373
110	0xbe982cb5	-0.2972161
111	0xbe676c49	-0.22599901
112	0xbdf99d96	-0.1218826
113	0xbe8ca5b1	-0.27470163
114	0x3d04f029	0.032455597
115	0xbc1263c8	-0.0089349225
116	0x3c7eaed4	0.015544612
117	0xbbf55f8d	-0.007488197
118	0xbe895c1d	-0.2682809
119	0xbe2dea8a	-0.16984001
120	0xbda6ac72	-0.0813836
121	0xbe5d431f	-0.21607636
122	0xbcb29441	-0.021799209
123	0xbd01528d	-0.031572867
124	0x3d7c27aa	0.061561264
125	0xbd22abcb	-0.039714616
126	0xbe0fc200	-0.14038849
127	0xbd8a374f	-0.067488305
