examples/mujoco_Go1/nn_params/Go1JoystickFlatTerrain/hidden_1_kernel.npy (npy, 524416 bytes, 1 tensors)

array f4 [512, 256]
0	0x3e03f711	0.12887217
1	0x3dc071e9	0.09396727
2	0xbdf777fb	-0.12083431
3	0xbd603ea3	-0.054747235
4	0x3e0aadc6	0.13542852
5	0xbcf5e15e	-0.03001469
6	0x3a647937	0.0008715572
7	0x3d62ee23	0.055402886
8	0x3cdc757b	0.026911488
9	0xbc727947	-0.014799423
10	0x3e958508	0.29203057
11	0xbd764e9e	-0.06013357
12	0xbdf9d01c	-0.12197897
13	0xbe153b54	-0.14573413
14	0x3d5911e1	0.052995566
15	0x3cf0a9df	0.029377876
16	0xbd5041d0	-0.050844014
17	0x3d19a487	0.03751042
18	0xbdedc9bd	-0.11610744
19	0x3d065caa	0.032803215
20	0xbd481b89	-0.048854385
21	0x3e1508fc	0.14554209
22	0x3db20a6e	0.086933956
23	0x3df07b7b	0.11742302
24	0xba7305fa	-0.0009270605
25	0xbcda94cf	-0.026682286
26	0x3de6e0e4	0.11273363
27	0x3b350a65	0.0027624604
28	0x3dfb82f9	0.122808404
29	0x3dab13b6	0.08353369
30	0x3dd48fbd	0.103789784
31	0x3d722aba	0.05912278
32	0x3d8a4a9d	0.067525126
33	0x3ddfecbe	0.10933827
34	0x3d33f00c	0.0439301
35	0xbca8a6c9	-0.020587342
36	0x3d712c0f	0.05887991
37	0x3da8cc90	0.08242142
38	0xbc253fbe	-0.010085998
39	0x3d016450	0.031589806
40	0xbdb9a3ce	-0.090644464
41	0xbdc53b41	-0.096304424
42	0xbd728793	-0.059211325
43	0x3e621933	0.22079925
44	0x3d032110	0.032013953
45	0xbd80ce08	-0.06289297
46	0xbd465b0c	-0.048426673
47	0xbd3514a4	-0.044209138
48	0x3dc6489f	0.0968182
49	0x3e0cdb54	0.13755542
50	0x3921f844	0.00015446643
51	0x3e1e7a2f	0.15476297
52	0xbd91574a	-0.07096727
53	0xbdaa86af	-0.0832647
54	0x3e3d3d0e	0.18480322
55	0x3d56877e	0.05237531
56	0xbd078c74	-0.03309293
57	0xbcbdcbbb	-0.023168435
58	0x3e56a287	0.20960437
59	0x3db952af	0.09048974
60	0x3e1cc458	0.15309274
61	0xbc671cfe	-0.014106033
62	0x3c59d6b8	0.013295822
63	0x3cf86bac	0.03032478
64	0xbd258ed3	-0.04041941
65	0xbd256fd5	-0.040389854
66	0xbd65710b	-0.05601601
67	0xbe1f7cd7	-0.15574966
68	0x3dcef4fa	0.10105319
69	0x3d2871df	0.04112422
70	0x3d4af5b0	0.049550712
71	0xbd315ea0	-0.043303132
72	0x3dd6c3af	0.104865424
73	0x3e20cccc	0.15703124
74	0xbd225efe	-0.039641373
75	0x3c92d489	0.01792361
76	0x3d7bb2b0	0.061449707
77	0xbd841e14	-0.064510494
78	0xbd5078bb	-0.050896388
79	0x3dbc852a	0.092050865
80	0x3e6c37b6	0.23068127
81	0x3d6d5f5d	0.057952274
82	0xbe376b00	-0.17911911
83	0x3cb65b86	0.022260439
84	0xbda0b1dc	-0.07846424
85	0xbd8af884	-0.06785682
86	0xbd5b7a07	-0.05358317
87	0x3ca3fd80	0.02001834
88	0x3d778de5	0.060438056
89	0x3cb2c3c3	0.021821862
90	0xbbae7bc0	-0.0053248107
91	0xbdf8b88c	-0.121445745
92	0xbdde9ce4	-0.10869768
93	0xbd4f7b4c	-0.050654694
94	0x3dc6a7e2	0.0969999
95	0x3d9ce334	0.07660523
96	0x3d2e2405	0.04251482
97	0x3c33731d	0.010952738
98	0x3cebc69f	0.028781233
99	0xbd76d03b	-0.060257178
100	0x3e203784	0.15646178
101	0x3dd5e0f2	0.104432955
102	0x3dea7c6d	0.114495136
103	0x3dd4b4d1	0.103860505
104	0xbdd8acf7	-0.105798654
105	0xbba77e47	-0.005111489
106	0x3ddd5732	0.10807647
107	0x3daf52a4	0.08560684
108	0xbdc6eabd	-0.097127415
109	0xb5b31560	-1.334276e-06
110	0xbd05e7df	-0.032691833
111	0xbc4aea14	-0.01238491
112	0xbc05ec02	-0.008173944
113	0x3d898537	0.06714862
114	0xbc943155	-0.01808993
115	0xbc0d2ca6	-0.008616602
116	0x3e266e7a	0.16253081
117	0x3e09b468	0.13447726
118	0x3e6c4b96	0.23075709
119	0xbdecfacf	-0.115712754
120	0x3dadde5d	0.08489678
121	0x3e17989b	0.14804308
122	0x3dceaea6	0.10091905
123	0x3e3a21f0	0.18177009
124	0xbe1569de	-0.14591166
125	0xbd009d15	-0.031399805
126	0x3e4e28e1	0.20132782
127	0x3cf3f3be	0.029779311
128	0xbc3130b6	-0.010814836
129	0xbd00cad2	-0.031443425
130	0xbe0fec9e	-0.14055106
131	0xbcafd433	-0.02146349
132	0x3d472fb4	0.048629478
133	0x3d810cc7	0.06301265
134	0xbdbd2335	-0.09235231
135	0xbd9d5048	-0.07681328
136	0x3cd65abc	0.026166312
137	0x3d1cb104	0.038254753
138	0x3bc9ed5d	0.006162329
139	0x3d807deb	0.06274017
140	0xbcc0f958	-0.023556396
141	0x3d545a56	0.051843964
142	0xbe495fac	-0.19665402
143	0xbe0dd83e	-0.13852021
144	0x3dfa407a	0.12219329
145	0xbde6f260	-0.11276698
146	0x3dbf38b9	0.09336991
147	0x3c94f2f5	0.018182257
148	0x3def3a97	0.11681097
149	0x3db602b8	0.08887237
150	0xbd2f612f	-0.04281729
151	0x3db19664	0.08671263
152	0xbd1bb1d7	-0.0380114
153	0x3df15650	0.11784041
154	0xbe53da3e	-0.20688722
155	0xbd24981f	-0.040184136
156	0x3d121cb1	0.035671894
157	0x3d7c1548	0.061543733
158	0x3ddc7b49	0.10765702
159	0xbdb89722	-0.09013201
160	0xbd06342b	-0.032764595
161	0xbd8ae70f	-0.06782352
162	0xbdf4a032	-0.11944617
163	0xbc65c5ac	-0.014024179
164	0x3e4bc597	0.19899593
165	0xbd5d7983	-0.05407096
166	0x3d00eaa7	0.031473782
167	0x3e41dff8	0.18933094
168	0x3d6a26ce	0.057165913
169	0x3df0f1da	0.117648795
170	0x3d8aa7e8	0.06770307
171	0xbd04b891	-0.03240258
172	0xbd380d8d	-0.044934798
173	0xbc11fcec	-0.008910399
174	0xbb8db67e	-0.0043247333
175	0xbdaf0829	-0.08546478
176	0x3dcd8e54	0.100369126
177	0xbd2fcb73	-0.042918634
178	0x3cb74dbb	0.022375932
179	0xbdd50448	-0.10401207
180	0xbe05dff2	-0.1307371
181	0xbe01f335	-0.12690432
182	0x3d9b7003	0.07589724
183	0x3dde2190	0.10846245
184	0x3ddbd419	0.10733814
185	0xbd046af2	-0.032328553
186	0x3cde43b8	0.0271319
187	0x3c55abb6	0.013041427
188	0x3e2ce556	0.1688436
189	0x3d7cef17	0.06175145
190	0x3c9fb56e	0.019495692
191	0x3ccf567f	0.0253098
192	0x3e183fa3	0.14868025
193	0x3e0b204d	0.1358654
194	0x3b2bc502	0.0026209955
195	0xbd0ee494	-0.034885958
196	0x3bc06249	0.0058710915
197	0x3e6431d3	0.22284631
198	0x3dfc9ebe	0.12334965
199	0x3ce9e0da	0.0285496
200	0xbd8e780d	-0.069564916
201	0x3e1ffeb8	0.15624511
202	0x3dc716d2	0.097211495
203	0x3de5f994	0.11229244
204	0x3e09ab0d	0.13444157
205	0x3de5cd2a	0.112207726
206	0xbc3e9c93	-0.01163401
207	0xbd67ad8c	-0.05656199
208	0x3e0f66a1	0.14003994
209	0xbd9896dd	-0.0745065
210	0xbd84e77b	-0.06489464
211	0xbde32e45	-0.110928096
212	0xbdb232a3	-0.087010644
213	0x3c0c62d6	0.008568486
214	0xbd196860	-0.037453055
215	0x3a596353	0.00082926935
216	0x3c98230e	0.018571403
217	0x3e211de5	0.1573406
218	0x3e3962dc	0.18104118
219	0x3dc808df	0.09767317
220	0xbc3b0275	-0.01141416
221	0x3dd0bed0	0.101926446
222	0x3e3dbcc9	0.18529047
223	0x3db453c4	0.088050395
224	0x3e8bc9fa	0.27302533
225	0x3d2d3c3a	0.042293765
226	0xbd081a04	-0.033227935
227	0xbe57b1e1	-0.21063949
228	0x3be30f01	0.006929279
229	0x3d85e41e	0.065376505
230	0x3e65da45	0.22446544
231	0xbd3aaa47	-0.045572545
232	0x3cb6ce99	0.02231531
233	0xbd95d030	-0.07315099
234	0xbde580a1	-0.11206175
235	0x3ddeba64	0.10875395
236	0x3d968ccb	0.07351073
237	0x3db2058f	0.086924665
238	0x3d56d077	0.0524449
239	0x3dcecec4	0.10098031
240	0x3d4407f6	0.047859155
241	0xbe288991	-0.16458727
242	0xbd3ed1cc	-0.046586797
243	0x3e1091a7	0.14118062
244	0x3e0a31f6	0.13495621
245	0xbe444ed1	-0.19170691
246	0x3e1c3a2e	0.15256569
247	0x3e228d60	0.15874243
248	0x3dba9495	0.09110371
249	0xbd5e360d	-0.054250766
250	0xbd73f9bf	-0.05956435
251	0x3dbc275b	0.09187194
252	0x3cdecdeb	0.027197799
253	0x3c47bdfd	0.012191293
254	0xbde059af	-0.10954606
255	0x3db25055	0.08706728
