examples/mujoco_Go1/nn_params/Go1JoystickFlatTerrain/hidden_2_bias.npy (npy, 640 bytes, 1 tensors)

array f4 [128]
0.0048835287 -0.04708471 -0.04132702 -0.25920284 0.014114477 -0.05345395 0.1328865 0.007788804
-0.27247682 -0.00033196306 -0.1971705 -0.14426933 -0.1258644 0.030040262 0.021488417 -0.24999169
-0.06712211 -0.032895837 -0.21528427 -0.0108724395 -0.06727808 0.019245874 -0.1712242 -0.017178554
0.011737318 -0.17904787 -0.032610774 0.017448232 -0.25284988 -0.15850465 -0.22190365 -0.019631568
0.019966947 -0.2309218 -0.21881403 -0.0067218305 -0.08254944 -0.056622546 -0.145437 -0.09667467
-0.14341156 -0.18382001 -0.24354196 0.0017278531 -0.29981953 -0.18611622 -0.021792594 0.083840385
-0.09589945 0.011690795 -0.19847672 -0.027773442 -0.18804683 0.013246467 -0.0039019599 -0.3935378
-0.10010789 -0.031715862 0.016691104 -0.04070669 -0.013299934 -0.1823357 0.050469033 -0.111311704
-0.035269912 -0.17638132 -4.5223263e-05 -0.19405022 -0.0031170538 -0.045880508 -0.21588573 -0.20093656
-0.11489986 0.020692348 -0.16685663 -0.19813617 -0.04393241 -0.16761768 -0.03755376 -0.04329444
-0.14568263 0.033727087 -0.29953802 -0.2746239 -0.0609698 0.0147683285 -0.074090615 -0.08743481
-0.01045156 -0.04443263 -0.035550416 -0.043867067 -0.28510332 0.011304731 -0.091573305 -0.14465095
-0.17314038 -0.09221925 -0.059109356 -0.008367494 -0.01852196 -0.103244305 0.04979449 -0.14675799
-0.0771395 -0.020481268 -0.30383798 -3.101614e-05 -0.10613241 -0.04364612 -0.31937802 -0.04913823
-0.25409067 -0.2660556 0.03534616 0.026932055 -0.05352136 0.018008659 -0.1899001 -0.121757716
-0.053334586 -0.2968519 -0.033304945 -0.053738914 0.037444446 0.0024627221 -0.039127897 -0.045886725
00000000: 0206 a03b e6db 40bd 8546 29bd 3cb6 84be
00000010: 6840 673c 87f2 5abd 6613 083e 3939 ff3b
00000020: 1582 8bbe 540b aeb9 10e7 49be 57bb 13be
00000030: 99e2 00be ff16 f63c 7a08 b03c d2fd 7fbe
00000040: 5177 89bd c9bd 06bd 7b73 5cbe 5122 32bc
00000050: 17c9 89bd 86a9 9d3c 6655 2fbe 0aba 8cbc
00000060: e14d 403c 5358 37be e092 05bd 98ef 8e3c
00000070: 8a75 81be 0b4f 22be b63a 63be 62d2 a0bc
00000080: b991 a33c c476 6cbe c910 60be cd42 dcbb
00000090: ae0f a9bd 0bed 67bd 70ed 14be 5ffd c5bd
000000a0: 7bda 12be 503b 3cbe 1063 79be 2179 e23a
000000b0: f281 99be 4095 3ebe 6286 b2bc 82b4 ab3d
000000c0: ee66 c4bd c08a 3f3c 7b3d 4bbe 2185 e3bc
000000d0: 598f 40be b607 593c 06b8 7fbb c97d c9be
000000e0: 5e05 cdbd 7ee8 01bd c8bb 883c 0fbc 26bd
000000f0: f7e7 59bc 36b6 3abe 9eb8 4e3d 64f7 e3bd
00000100: 2f77 10bd 4e9d 34be 1cae 3db8 1ab5 46be
00000110: 7c47 4cbb 33ed 3bbd 2611 5dbe 50c2 4dbe
00000120: 9e50 ebbd 0083 a93c 77dc 2abe 35e4 4abe
00000130: 79f2 33bd f8a3 2bbe f9d1 19bd 8355 31bd
00000140: d42d 15be 6a25 0a3d 0c5d 99be 819b 8cbe
00000150: 78bb 79bd dcf6 713c d2bc 97bd 0611 b3bd
00000160: 053d 2bbc fdfe 35bd 509d 11bd f4ad 33bd
00000170: 10f9 91be 7a37 393c c98a bbbd 611f 14be
00000180: b64b 31be 72dd bcbd a71c 72bd d017 09bc
00000190: 5ebb 97bc c071 d3bd 4ff5 4b3d ba47 16be
000001a0: 50fb 9dbd 55c8 a7bc a790 9bbe 5417 02b8
000001b0: f35b d9bd 46c6 32bd 8485 a3be 2b45 49bd
000001c0: 2c18 82be 7138 88be 23c7 103d 9da0 dc3c
000001d0: 3739 5bbd e586 933c 2c75 42be 1c5c f9bd
000001e0: 5e75 5abd f9fc 97be c46a 08bd 561d 5cbd
000001f0: 595f 193d 9f65 213b 9344 20bd b8f3 3bbd
