examples/mujoco_Go1/nn_params/Go1JoystickFlatTerrain/hidden_2_kernel.npy (npy, 131200 bytes, 1 tensors)

array f4 [256, 128]
00000000: 44d2 9cbd 50d0 ea3d 761a 073d bce5 623d
00000010: 5183 44bd 600a e13d 737c c83d a1df 9dbc
00000020: 386c 673e e64f 473d 5826 3f3d efd2 433e
00000030: 8f99 78bb 72e2 c43d cf37 0bbe 5fe7 06bd
00000040: b058 c4bb 81a7 2c3d 53e5 c63c 2830 c0be
00000050: 81b8 e8bd 7124 4c3d 4010 383c 15d3 aa3c
00000060: d875 4ebb 28f0 4cbe 78d5 6dbd 4c08 053e
00000070: 424f a7bc 4e6f 9abd 0d73 9c3d 4c1a a73e
00000080: a772 27bd be76 f93c 753d f5bd 1dc6 8cbc
00000090: d5eb 643d ea52 1dbd 1567 39be 980d 0ebe
000000a0: 0b1e a0bd 3626 dcbd adbe 943d bae4 e23c
000000b0: f902 f33d 159e 9d3e 0564 8f3c 5a71 673e
000000c0: b773 463e 0aee c6bd 58f9 433e 3f46 de3d
000000d0: 2317 e73d 2fe1 a63c 2171 673e 9c4f 82bd
000000e0: 4227 ab3d 19c8 86bc bbfe d03d 08f1 f3bb
000000f0: 902b 4039 4e15 483e 1693 0b3e a13b 3cbc
00000100: 0ca0 113d 6194 a6bd 78c2 dabc a3aa 6bbe
00000110: a2ba cfbd f5c3 fabc bf02 243d 055a 373e
00000120: 8423 813d e122 7fbc 0903 33bd 6e70 98bc
00000130: 8c77 90bd f3da 3e3d 99a1 b53c 5d13 13be
00000140: eb44 413e 4a41 99bc 84dc 053e d45a bebd
00000150: 4fd1 d3bd e2c6 69bd a282 a63d 8d07 a23e
00000160: 2b1b a9bd c06d 9a3d fabd aa3d 9088 abbe
00000170: 6d22 023c ca43 e23d 4933 f93d d6ca 9d3d
00000180: e74d d9bc 21f8 9fbd e021 4d3e a141 a0bd
00000190: 11fe 6bbb 9514 65be 891f 053e 5242 58be
000001a0: 1a7d 4f3e 57a6 943d 28c1 9bbc 8667 483e
000001b0: d3a3 62bd c8f3 323e 53a8 643e 6048 3a3e
000001c0: ff3c 1e3e 5bef 003e dc6d a2bd 4cf6 78bc
000001d0: 9f7f 813d de79 bd3e eb4c b73c 3f71 ce3d
000001e0: a3d2 103e d37a c83d 95f8 7dbc 1fa6 bbbd
000001f0: 298f d73b d955 033e 5adc 8c3d c71b 4f3e
00000200: ee89 12bd f96d 82bb 2ba6 67bd dd7b ad3d
00000210: d30f 3a3b d340 1b3e 16b6 80bc e504 08bd
00000220: 1982 51bd ecb7 7bbd 909c 29bd ceba 133d
00000230: 9d43 4abd 2dd4 a0bd 1e96 82bc 34b3 32be
00000240: 16f5 aebd f072 09be e311 1f3e ff96 013e
00000250: 3d4d 59be 2b12 4f3d e30b f7bc f1cd 643d
00000260: f74d af3d 8100 8d3d 83ac fc3c a013 09be
00000270: 1cff 3f3d bcfa e8bc d5a2 863d 7982 d5bd
00000280: 62ed 04be ea3a d7bd ec03 613d f06e 133d
00000290: 62b1 40bd 2d1c 6a3b 8eab 743d 38e0 eaba
000002a0: 8885 183e bb65 1dbc d024 ca3c 48fb 9dbd
000002b0: 08f4 6ebe c470 9fbd 6315 a3bc b5b6 aebd
000002c0: 5825 023e 6676 82be 996f 1cbd 8233 9b3a
000002d0: a920 983a d311 903c 8640 b7bd 5f1a fc3d
000002e0: 0832 843d 8bd2 bfbc 2a6f 303d b890 afbe
000002f0: b456 9c3c 6efc 043e 26fe d7bd 96a5 3c3d
00000300: 63bf acbd a35e 44b9 9cb8 bebd 253d a43c
00000310: 668f 53bd b188 213a 8a14 cfbd 17f6 163e
00000320: 6cff 893d 0285 c4bc 1df0 f43c 784c b53d
00000330: 254e 253d 96f2 9b3b 4803 913c a4d4 da3d
00000340: b8a4 88bd 6a57 34bd 80ea 2f3e 4fd1 b8bd
00000350: d608 2fbe 9135 36bd 659f 00be f736 2c3d
00000360: 902b 74bd 2732 da3c 08f1 7d3d 6c4d 09bb
00000370: 14b0 653e 6fc8 ff3d 0e53 0fbc ef84 ee3d
00000380: a436 87bd cc50 9cbd bf18 18be dc73 b63d
00000390: 73b7 583d 6ddb 4b3c d2d0 b7bd 1254 b23c
000003a0: a575 be3d 5acd 023d cabc 2d3c 639b 14bd
000003b0: 075a f03d f60f e03d 85e9 4abd 486e c73c
000003c0: c7cd 8ebd 917e 0c3e 5f48 89bd 3f8d 8f3d
000003d0: c9a5 52bc 2a07 c1bc 2fb4 d03d 892a b23d
000003e0: 8beb f13d d08e 9c3d 3d48 d5bd 1b13 5bbd
000003f0: 16d5 8f3d 422a f0bc 1c89 093e a581 4cbd
-0.076572925 0.11465514 0.03298422 0.055394873 -0.047976796 0.10988307 0.09789362 -0.019271674
0.22599876 0.04866018 0.046667427 0.19123434 -0.0037933325 0.096135035 -0.13595508 -0.032935496
-0.0059920177 0.04215193 0.024279272 -0.3753674 -0.11363316 0.04983944 0.011234343 0.020852605
-0.0031503346 -0.20013487 -0.058064908 0.12991446 -0.020423535 -0.07540761 0.07639132 0.3263725
-0.040880825 0.030452128 -0.119746126 -0.017184312 0.05588897 -0.03840915 -0.18105729 -0.13872373
-0.0781823 -0.10749476 0.07262931 0.027696956 0.11865801 0.3078467 0.017503748 0.22601834
0.19380079 -0.09713371 0.19138086 0.10853242 0.1128371 0.020371048 0.22601749 -0.063628405
0.08357097 -0.016452836 0.10204836 -0.0074445046 0.00018326775 0.19539377 0.13630328 -0.011488826
0.035553023 -0.0813377 -0.026704058 -0.23014311 -0.10143019 -0.030611018 0.04004168 0.17905433
0.06305602 -0.015572281 -0.043704066 -0.018608298 -0.07054052 0.046595525 0.022171782 -0.14362855
0.18873946 -0.01870789 0.13072401 -0.09294668 -0.10342657 -0.057074435 0.08130385 0.31646386
-0.08257135 0.075404644 0.083370164 -0.33502626 0.007942778 0.11048086 0.12167985 0.077047035
-0.026526405 -0.07810999 0.20032454 -0.07825018 -0.003600959 -0.22371133 0.13000311 -0.21119049
0.20262566 0.07258289 -0.019013003 0.19570741 -0.055332016 0.17475808 0.22329836 0.18191671
0.15452956 0.12591307 -0.0793111 -0.0151954405 0.0632317 0.3700704 0.022375545 0.10080194
0.14142852 0.09789052 -0.015501161 -0.091625445 0.0065783453 0.12825717 0.06877966 0.2022544
-0.03577607 -0.003980395 -0.056554954 0.08470891 0.002839078 0.15161447 -0.015711825 -0.033207793
-0.05114946 -0.0614547 -0.041409075 0.036066823 -0.049380887 -0.07852969 -0.015940722 -0.17451173
-0.0854284 -0.13422751 0.15534167 0.12655257 -0.2122087 0.050554436 -0.030157035 0.055860464
0.085597925 0.06884862 0.030843979 -0.13386393 0.04687415 -0.028439872 0.065740265 -0.10425276
-0.1298118 -0.10509284 0.05493538 0.03599447 -0.047044165 0.003572236 0.05973392 -0.0017919606
0.14894688 -0.009606774 0.024675757 -0.07713944 -0.23335278 -0.0778518 -0.019907659 -0.08530942
0.12709558 -0.25480956 -0.038192365 0.0011840912 0.0011606413 0.017586624 -0.08947854 0.123097174
0.06454855 -0.023415824 0.043074764 -0.342901 0.019084312 0.1298692 -0.10546522 0.046056353
-0.084349416 -0.00018727272 -0.09312555 0.020048687 -0.051650427 0.0006162031 -0.101113394 0.14742313
0.06738171 -0.023989204 0.029899651 0.08852476 0.040357728 0.004759143 0.01770176 0.10685089
-0.066720426 -0.044028677 0.17179298 -0.090242974 -0.17093214 -0.04448468 -0.12560804 0.042044606
-0.059611857 0.026635243 0.061997443 -0.0020950688 0.2243045 0.124894015 -0.008747829 0.11646449
-0.06602219 -0.07632598 -0.1485319 0.08908817 0.052909326 0.012442452 -0.08975376 0.021768603
0.09299783 0.03193412 0.010604093 -0.036281 0.11735921 0.10940544 -0.049539108 0.024344578
-0.06972843 0.13720156 -0.06703257 0.070093624 -0.012856909 -0.023562986 0.10190617 0.08699519
0.118125044 0.07644427 -0.10414169 -0.053485017 0.07023065 -0.029317025 0.1343121 -0.049928326
