examples/mujoco_Go1/nn_params/Go1JoystickFlatTerrain/hidden_0_bias.npy (npy, 2176 bytes, 1 tensors)

array f4 [512]
00000000: 3d31 cdbe 4535 bdbe d41a 6a3d 1b49 cdbe
00000010: 727b 81be ad1b 14be 11d0 10bf 7fb8 34be
00000020: 06c2 94bb 09fa 103e e976 bc3c ff24 013c
00000030: 1a59 f4be 2f18 bbbd 1cfd a9be 9649 80bd
00000040: b6d9 2e3d d5f4 463e 0484 2abd 7fc1 8dbe
00000050: 12a6 91be 29d2 bbbe 23f5 e63b 2727 1abe
00000060: f059 8d3d e86f dabd 466d a4be 5558 79be
00000070: 3de7 7ebe 8c1e b03c b1d6 67be 29a2 fcbe
00000080: 581d 7abe 8fb7 d93d 4a04 8dbd e6ff f0bd
00000090: 6354 af3d 0e11 babd b036 ccbd 6157 bd3d
000000a0: cd6d a0be bbf5 02be c628 48be 0ecc 83bd
000000b0: fc14 b8bd d9f3 f4bd 277b 263e efc1 03be
000000c0: eb30 a0be 2da0 983c 69ef 4f3e 6f07 0abe
000000d0: 4d1f e73d 185e adbe e4f9 19be cfc1 ecbd
000000e0: f1ed 6dbe 4c23 963d 0dc6 4dbe ed87 98be
000000f0: 876e ddbd 793f cbbc 67d0 d2be eb70 7abe
00000100: ee57 abbe 85bc d2bd 5586 d7be e426 11be
00000110: 2baa dcbe 717f 553c ccf8 09be 86cf f4be
00000120: d4ac afbb 85cb 73be dad1 7dbe fa09 b8bd
00000130: a58a abbd 1c36 54bd 8742 7bbe 1e85 6ebe
00000140: ddca 38be aa97 d1bd e03b 29be 7064 0f3e
00000150: 14b6 bdbe d83c 44be f883 01bd e36f f9bc
00000160: b01e 6ebe 60e3 8dbc d657 d3bd 3267 343e
00000170: 445e bcbe e74f 2abe decf 1bbe 3978 363e
00000180: 7371 ebbd b2cd 20be aaae 19be c5d8 adbe
00000190: c62a 4dbe 7534 84be f04e 46be 23ef 64be
000001a0: 083c e9be f8cf 5d3e 8862 913e ea0b c1bb
000001b0: 4daf 00be 139b 07bf 8a4c fbbd cc11 70be
000001c0: 886a 16bd bef6 4d3e 0a9a 2abe be29 ffbe
000001d0: dec4 f3bb 27ed a7be ff12 c4bd 3a44 e0be
000001e0: 3d33 c13c 0738 c5bd 2b34 57be 506e 303e
000001f0: 2f22 2b3d 653e df3d 0ff6 8abe 34a2 c5be
00000200: 77f5 2dbe 4214 16be 93d2 49be f304 fdbd
00000210: adb8 3fbe b84b ddbd 11eb e8bd 3a9d 22be
00000220: ec18 a4bd 1377 cdbe 5ea4 a53e 3254 84bd
00000230: d3ad 85be 56b1 8ebd e879 bb3b d544 aebe
00000240: 0c45 8ebe 6e3e da3d 886b 583d 4275 9e3d
00000250: ee35 85be 3c74 5bbe 5829 70bd e96d e0bd
00000260: 3a8d 0cbe 3de1 79be 37f4 06bd 6269 8dbd
00000270: ecec 2c3e 5a57 06bf 8e96 13bd 402d 93be
00000280: 5a31 42be 420f 62be 2cd8 e73d a206 d3bd
00000290: 1460 8abb 33ab 81be 69a4 80be 66f3 c43c
000002a0: fad6 51be 6b54 b43c c538 e4be 731f ecbd
000002b0: c7fa c6be a3f3 23be 34cb 873e c00d 833d
000002c0: 5e43 bebe 55f8 5bbe 656d 97be 56b5 06bf
000002d0: 6891 32be 8375 b4be 50b4 95be 3c39 89be
000002e0: d654 c63d e138 b5be 007a 73be 39ca 3d3d
000002f0: d05d fabe c843 563d 92c9 90be 28e0 ecbe
00000300: c5e2 79bc 00f5 dabd df72 4b3e 00f1 553e
00000310: 65a7 163c 99e8 4ebc 30fe 47be 2bbe 7dbe
00000320: 7f7c bdbd beb4 1cbd 9ab9 983d 246c 15bf
00000330: 7726 ae3d e4d4 e3bc 51a3 15bf df8b 01bf
00000340: b907 c6bd b6ff 14be ae34 99be a9bc febe
00000350: 2ce6 93be b491 a1be 7368 ebbe 44a5 cfbd
00000360: c67e 95bd f150 41be 3f2d 6dbe 3d83 e43a
00000370: 2838 69be 3d16 94be 3d96 8ebe 6e97 c23c
00000380: 8000 a2be ebd0 01b9 c67f 8fbe 4a7b 8bbe
00000390: c7a1 a1be 65ec 97be 40f1 34be 7f71 b2be
000003a0: a694 143e 63e3 013d 2c2a 8ebe fba7 3dbe
000003b0: 2255 813e 6f2e 6f3d 1ef3 f9bc ebd7 19be
000003c0: 4ace a1be 1f79 c33d 5c51 a2bc f715 dbbd
000003d0: 13d1 c6be e2de 193d 5e7c 1fbe 6e08 2dbf
000003e0: be6d 733d 7cc8 dbbd 99b4 25be 2dbb 93bd
000003f0: 5a06 a7bd 86bc b63d 8798 e3bd 8eef aabe
-0.40076628 -0.36954704 0.05715449 -0.40094838 -0.25289494 -0.14463682 -0.56567484 -0.17648505
-0.004539731 0.14157881 0.02300592 0.007882356 -0.4772423 -0.09135472 -0.3320092 -0.062640354
0.042688094 0.19429334 -0.041629806 -0.27686688 -0.28447014 -0.36683777 0.0070482655 -0.15053998
0.0690192 -0.10665876 -0.3211462 -0.24350102 -0.24892898 0.02149894 -0.22640492 -0.49342468
-0.24425256 0.10630714 -0.06885584 -0.11767559 0.08561017 -0.09085284 -0.09971368 0.09245182
-0.3133377 -0.12789051 -0.19546804 -0.06435405 -0.089883775 -0.11960573 0.16257916 -0.12866949
-0.3128732 0.018631065 0.20306171 -0.13479398 0.11285267 -0.3386085 -0.15036732 -0.115604036
-0.23235299 0.07330951 -0.20095082 -0.29791203 -0.10812097 -0.02481054 -0.41174623 -0.24457137
-0.33465523 -0.102898635 -0.42094675 -0.14174992 -0.43098578 0.013030873 -0.13473815 -0.47814578
-0.005361179 -0.23808105 -0.24787083 -0.08986278 -0.08376054 -0.051809415 -0.24537097 -0.23292968
-0.18046136 -0.10234006 -0.16526747 0.14003158 -0.37052977 -0.19163835 -0.031619996 -0.03044886
-0.23253894 -0.017320335 -0.10319488 0.17617491 -0.3679067 -0.16632043 -0.15216014 0.17819299
-0.11496248 -0.15703467 -0.15008035 -0.33954445 -0.20035848 -0.25821272 -0.1936605 -0.22356848
-0.45553613 0.21661365 0.28395486 -0.005891313 -0.12566872 -0.52971 -0.12270458 -0.23444289
-0.03672269 0.20113656 -0.16660324 -0.49836534 -0.00743924 -0.3279812 -0.09573936 -0.43802053
0.023584003 -0.09629827 -0.21015994 0.17229581 0.041780647 0.10900573 -0.27140853 -0.38600314
-0.16988169 -0.14656165 -0.19709234 -0.123544596 -0.18722792 -0.10805458 -0.1137296 -0.1588029
-0.08012566 -0.4012991 0.32351965 -0.064613715 -0.2610918 -0.06967418 0.0057213195 -0.3403689
-0.27787054 0.10656439 0.052836925 0.07737209 -0.26017708 -0.21431059 -0.05863318 -0.10958464
-0.13725749 -0.24402328 -0.032947745 -0.06904866 0.16887254 -0.5247704 -0.036032252 -0.2874546
-0.18964139 -0.22076133 0.113205284 -0.103039995 -0.004222879 -0.25325927 -0.25125435 0.024041843
-0.20492163 0.02201291 -0.44574562 -0.11529436 -0.38863203 -0.16010909 0.2652222 0.06399107
-0.37160772 -0.2148145 -0.2957565 -0.52620447 -0.1743828 -0.35245904 -0.2923913 -0.2680148
0.0968415 -0.35394958 -0.23777008 0.046335433 -0.48899698 0.052310735 -0.28278786 -0.46264768
-0.01525182 -0.10691261 0.19868039 0.20892715 0.009195183 -0.012628698 -0.19530559 -0.24779575
-0.09252261 -0.038258307 0.07457276 -0.58368134 0.0850343 -0.027811475 -0.58452326 -0.5060405
-0.09669442 -0.14550671 -0.29923004 -0.4975331 -0.28886545 -0.31556475 -0.45978126 -0.10138944
-0.07299571 -0.18878533 -0.23161791 0.0017434132 -0.22775328 -0.28923216 -0.27848998 0.023753848
-0.31641006 -0.00012380227 -0.2802717 -0.272425 -0.3156874 -0.29672542 -0.17670155 -0.34852216
0.1450983 0.031710993 -0.2776655 -0.1852111 0.25260264 0.058393892 -0.030511435 -0.15023772
-0.316027 0.095445864 -0.019814186 -0.10697549 -0.38831386 0.037566073 -0.15574786 -0.6759099
0.05943083 -0.10731599 -0.16182174 -0.07213435 -0.08155508 0.08922677 -0.11113077 -0.3338589
