examples/mujoco_Go1/nn_params/Go1JoystickFlatTerrain/hidden_0_bias.npy (npy, 2176 bytes, 1 tensors)

array f4 [512]
00000000: 8dc4 0bbf 270c 63be 3047 653d 3d57 e8be
00000010: 9948 25bd 5ee0 5bbe ad65 96bd 0fe0 7ebd
00000020: f3d8 cd3b 59df 95bd 79b4 bebc 93aa edbd
00000030: e340 d8be a36e f5bd 499c b0be 3a41 4bbc
00000040: f10f dd3b 773c babe c115 91bc 22bf 56be
00000050: c292 7fbe 76d4 84be 7230 333c 4be3 cebe
00000060: da5a 1dbd a360 c43d c260 6dbe fcd1 0abe
00000070: f52d 1dbe 3992 d3bd 5577 bdbd 858f e2be
00000080: b2ec 82be 8903 c33d a19a 44be 6092 73be
00000090: d294 c43d a5f8 83be 4a01 f3bd b9b1 6d3d
000000a0: 32ec 9bbe ffd6 57be ddba b0be af77 aabd
000000b0: c379 063c 7256 1ebe f0e7 063e 8574 7fbe
000000c0: ddd6 9ebe be09 f63d 29f2 433e 6e69 9ebe
000000d0: adbe 2d3e abee 41bc e52e 693e fee0 9ebe
000000e0: 6eef d6be ea44 1bbd 5555 323d da0b bcbe
000000f0: bcc7 70bd ab2e 5ebe 9561 a1be 91b2 acbe
00000100: 71fa 09bf 1241 923d bb0a 79be 34bc a13d
00000110: 45b5 04be b4bd eb3d 247f bcbe 9b97 e0be
00000120: 07ac 4d3d b33f 20be b722 68be 4ff0 4abe
00000130: 982f 9bbd f447 82be a314 44be c6d9 99be
00000140: 1563 60be 5950 72bd 2109 8dbe 0f39 033e
00000150: ffa6 b3be 6f6a abbe 921f 8abc 25c4 b53d
00000160: 1f5c bfbe cddd 2abe cc22 a9bd 6d9f f5bd
00000170: a0bc a1be 0d76 23be aacc 3dbe fa49 893d
00000180: 709b debd ba41 38be 2808 c1be b098 b9be
00000190: 5a2d 36be 32f3 86be 19aa e5be dd19 74be
000001a0: 968b a7bd 8a82 2a3e e9ed 543e 09b8 81be
000001b0: 8706 87bd 949e c0be fda6 2fbe 990b 9bbe
000001c0: 0971 69be da17 153e 353f cdbe 310e 7abe
000001d0: fb9a a9bd f369 a6be 75b5 6fbe 3431 a0be
000001e0: 4f95 38be 6c83 2abe a44d 10be f986 6f3e
000001f0: f80c f6bc 19f4 c2bd 9784 a9bd 79b5 17be
00000200: b2c5 eebd 12e3 66bd 06d1 f3bd b428 de3c
00000210: 4c09 aabe 7dc1 70be 872a c7be f9d8 76be
00000220: 51d3 31be 6fb3 6ebe 2d89 6e3e e963 6fbe
00000230: 2723 8cbc 2724 10be 1ebb 4bbd 9aab b9be
00000240: 77e4 ffbe c1eb 503c 11ab 93bd 4583 643e
00000250: e076 5cbe ba57 6bbd 4a0c 043d ed68 d83a
00000260: 680a 92bd 9683 7fbe 5416 43bc 8d31 943d
00000270: 09c8 e73d 4894 acbd f0da 2fbe 5975 51be
00000280: e29a f3bd 5a66 123d 9666 d1be e1f7 a1bd
00000290: 9c1d 2ebe 6a16 afbe c948 9ebe e75b 9bbb
000002a0: e996 89be 4865 d9bc 87d1 fdbe bbae 153e
000002b0: 62f4 43be 7df9 c5bd d53d 743e ea3f 06be
000002c0: 1996 7ebe e163 8cbe 7c35 a6be 7eba b0be
000002d0: cd34 18be 699d 6cbe 545f dfbe dc80 18be
000002e0: ad76 ccbd 79ba c2be 2943 74be eaab f73d
000002f0: 0bed 02bf 3d75 1cbd f68e 77be d3a3 1dbf
00000300: 973a 92ba 40be 8bbb 7c2b 50bd 347e c93c
00000310: d1e3 27bc a0ff e1be 5d75 babe 8a07 44be
00000320: 0bca 90be c826 303e 516d 52bd dc01 1abf
00000330: 6b4f 193d 0975 56bd 48c9 cbbe 11ed 84be
00000340: 7218 57bd fdbb 11be 6279 9ebe feca fabe
00000350: 3c6a b9be a66a debe f5f5 c7be 7f28 35bd
00000360: 5898 76bd 3262 cbbd e7a9 aabe 8c6f 08be
00000370: 2772 98be b88a 77be f19d 62be 1cdb 4cbe
00000380: 9660 99be 0d5c 6cbe 6e4c b8be c270 79be
00000390: 4e43 99be 3285 d8be 6db8 8ebc de94 9fbe
000003a0: 244c 7dbc 29b5 dc3c dc44 a4be 6e35 28be
000003b0: 7015 013d 7515 5ebe 9e7b 3bbe 2998 84be
000003c0: 514b e8be 8656 53be a976 9b3d cde4 a0be
000003d0: 1289 bbbe ed3d 233d ce64 63be 2093 28bf
000003e0: be1d 3abe 6965 3ebe d634 6a3d 414f 4fbe
000003f0: 83bc 3dbe 155e fabd 478c 543c 3b42 7fbe
-0.5459679 -0.22172605 0.055976093 -0.45379058 -0.040352438 -0.21472308 -0.07343612 -0.062225398
0.006281966 -0.07317991 -0.023279415 -0.116048 -0.42237005 -0.11983993 -0.34494236 -0.012405688
0.006746285 -0.36374256 -0.017710568 -0.20971349 -0.24958327 -0.25943345 0.010936843 -0.40407786
-0.03841672 0.095887445 -0.23181441 -0.13556665 -0.15349562 -0.10330624 -0.092512764 -0.44250122
-0.2557121 0.09522159 -0.19199611 -0.23786306 0.09598698 -0.25775638 -0.1186548 0.058030818
-0.3045364 -0.21078108 -0.34517565 -0.08323609 0.008207741 -0.15462664 0.13174415 -0.24946792
-0.31023303 0.12013577 0.19135346 -0.3093981 0.16967268 -0.011836688 0.22771795 -0.3103103
-0.41979545 -0.03790752 0.04353841 -0.36727792 -0.05878423 -0.2169749 -0.31519762 -0.33729985
-0.5389777 0.071413174 -0.243205 0.07897225 -0.12959774 0.115107924 -0.3681575 -0.43865666
0.050212886 -0.156493 -0.22669493 -0.19818233 -0.07577437 -0.2544552 -0.19148497 -0.3004896
-0.21912797 -0.059158657 -0.27546027 0.12814735 -0.35088345 -0.3347964 -0.016860757 0.08875302
-0.3737497 -0.16686173 -0.0825859 -0.11993299 -0.31589222 -0.15963002 -0.18535104 0.06703563
-0.10869491 -0.17993823 -0.37701535 -0.36249304 -0.17790738 -0.26357418 -0.44856337 -0.23837991
-0.08180921 0.16651359 0.2079388 -0.2533572 -0.06593042 -0.37620986 -0.17153545 -0.30282286
-0.22797026 0.1455988 -0.40087286 -0.24419476 -0.08281513 -0.32502708 -0.23409064 -0.3128754
-0.18025707 -0.16651696 -0.14092118 0.23391332 -0.03003548 -0.09519214 -0.08277243 -0.1481532
-0.11658801 -0.056368895 -0.119051024 0.027119018 -0.33210218 -0.2351131 -0.38899633 -0.24106206
-0.17365767 -0.23310636 0.23294516 -0.23377956 -0.017106606 -0.14076291 -0.049738996 -0.36263734
-0.49978992 0.012751521 -0.07210363 0.223157 -0.21529722 -0.05745671 0.032238282 0.0016510763
-0.07130891 -0.2495254 -0.011907179 0.072360136 0.113174506 -0.0842672 -0.17173362 -0.20454921
-0.11894776 0.03574214 -0.4089858 -0.07908607 -0.17003483 -0.34196788 -0.30914906 -0.00474118
-0.26872948 -0.026537552 -0.4957392 0.14617436 -0.19136193 -0.09666727 0.23851712 -0.13110319
-0.24861945 -0.27419952 -0.3246268 -0.34517282 -0.14863892 -0.23106922 -0.43627417 -0.14892906
-0.09983573 -0.38032892 -0.23853745 0.12093337 -0.5114295 -0.038197745 -0.24175629 -0.615781
-0.0011156377 -0.004264623 -0.05082272 0.024596311 -0.010247187 -0.4414034 -0.36417666 -0.19143501
-0.28279147 0.17202294 -0.051373783 -0.6015909 0.037429255 -0.052357707 -0.39802003 -0.25962117
-0.052513547 -0.14231868 -0.30951983 -0.48982996 -0.36213863 -0.4344074 -0.39054838 -0.044228073
-0.06020388 -0.09930839 -0.3333275 -0.13323802 -0.2977459 -0.24174011 -0.22130562 -0.20005459
-0.29956502 -0.2308199 -0.3599581 -0.2435942 -0.29934162 -0.4228912 -0.017421925 -0.31168264
-0.015460048 0.026941853 -0.32083786 -0.16426632 0.031514585 -0.21687873 -0.18308875 -0.2589734
-0.45369962 -0.20638475 0.07590992 -0.3142456 -0.36628014 0.03985398 -0.22206423 -0.65849495
-0.18175408 -0.18593372 0.057179295 -0.20245077 -0.18528943 -0.12224976 0.012972898 -0.24927609
