examples/mujoco_Go1/nn_params/Go1Getup/hidden_2_kernel.npy (npy, 131200 bytes, 1 tensors)

array f4 [256, 128]
000000 7a eb 82 bd 43 48 a6 bd 08 37 0c 3d 32 aa 2f 3c
       -0.0639257 -0.081192516 0.03423217 0.01072173
000010 b8 79 0e 3c 54 09 ab 3d 5d ae 3c bc 77 7f f5 3d
       0.008696012 0.083513886 -0.011516181 0.119872026
000020 e2 72 bf bd d9 2f 09 3c b8 d8 89 bd 03 13 db 3c
       -0.09348084 0.008373224 -0.06730789 0.026742464
000030 3d 84 10 3d 8c 69 12 3b a2 e1 93 3d 01 99 62 bb
       0.035282362 0.0022340743 0.072207704 -0.003457606
000040 46 40 92 3d ea 51 5e 3d 24 ac 95 bd ca 1a fa bb
       0.071411654 0.054277338 -0.07308224 -0.007632588
000050 11 da af 3d b0 58 01 3d c6 c1 3e 3d cc 1a 05 bd
       0.08586515 0.03157872 0.046571516 -0.03249626
000060 3f 3b db bd 2e 0c 27 bd b8 97 1a 3d d8 d9 d4 3c
       -0.1070466 -0.0407831 0.037742347 0.025982782
000070 fe 48 6b bd 83 ad 9f 3d 03 74 10 bd 3d f4 db 3d
       -0.057442658 0.077967666 -0.035266887 0.10739944
000080 b5 19 b4 bd 30 7e f5 3c ec 2a a4 bd 24 82 89 3a
       -0.08793966 0.029967397 -0.08015999 0.0010491055
000090 17 67 64 3d 81 00 ae 3c d4 d3 09 be 37 89 9b 3d
       0.055762377 0.021240475 -0.13459712 0.07594531
0000a0 31 59 83 3d 76 35 65 3d 40 79 0f 3e d9 c7 e0 bd
       0.06413496 0.055959187 0.14011097 -0.10975618
0000b0 6d 72 95 bb bc 19 c2 3c 08 42 0a 3d 4d 06 99 3d
       -0.0045607598 0.023693912 0.03375438 0.07471905
0000c0 8a 21 9b bd f6 9e 82 bd 53 3b b4 3d a6 f4 c8 bc
       -0.075747564 -0.06377976 0.08800378 -0.02453072
0000d0 5f b0 1a 3e c9 32 f8 3d 60 b0 21 bd e5 85 6e bc
       0.15106343 0.121190615 -0.039474845 -0.01455829
0000e0 75 02 e2 3c 61 21 20 3d ee 03 b7 3a 8d e4 f3 bd
       0.027589062 0.039094333 0.0013962963 -0.11908827
0000f0 7d b2 03 be 48 ed 4a 3d 07 cd 6d bc fc 67 e7 bd
       -0.12861057 0.049542695 -0.014514214 -0.1129913
000100 e0 ed a2 bc 9c 16 68 3d e7 13 39 bd 2d e9 58 bd
       -0.019888818 0.056662187 -0.045184996 -0.05295675
000110 70 24 f0 bd 39 da 5d 3d a3 bf 9f bc 38 c9 a1 3d
       -0.117257 0.05416319 -0.01950056 0.078997076
000120 7d ed 16 bd bb a2 bf bb 8c c2 c6 3d de bb cd bc
       -0.03684758 -0.0058482564 0.097050756 -0.025113996
000130 a1 29 36 bc eb a3 1b 3d 90 c3 fe 3c 0c bb 41 be
       -0.011118324 0.03799812 0.03109911 -0.18919009
000140 d4 6f 8a bc 4a 21 36 be b6 8e f0 3d 98 db 29 bd
       -0.016899027 -0.17786136 0.1174597 -0.041469187
000150 55 59 4c bc 86 09 9b bd d4 39 8b ba 3b 15 02 3e
       -0.01247247 -0.07570176 -0.0010622093 0.12703411
000160 72 22 08 3c 42 9f 06 be c2 c8 cb bd 8f da 7e bc
       0.008308994 -0.1314669 -0.09950401 -0.015555038
000170 1e 5c 32 be 93 a2 fc 3c 8c 0a 67 3d 21 c0 49 3c
       -0.17417952 0.03083924 0.056406543 0.0123138735
000180 d1 39 df bb 07 87 85 bd 87 4b 78 bd eb 34 d5 3d
       -0.006812312 -0.06519895 -0.060618903 0.10410484
000190 89 fe 27 3d ca 06 b1 3c e4 1f 77 3d fb 28 0a bd
       0.041014228 0.021609683 0.060333148 -0.03373049
0001a0 79 43 dd 3d df 66 af ba 2b 98 26 3e d1 ac 1c bd
       0.10803885 -0.0013382098 0.16268985 -0.038250748
0001b0 04 b5 e7 bc fd 51 78 be 5d fc ba 3d f6 71 d0 3d
       -0.028284557 -0.24250026 0.09130166 0.10177986
0001c0 65 48 f4 3d c1 dd c7 3d e7 f4 75 bd e8 05 85 3c
       0.11927871 0.09759093 -0.06004801 0.016238168
0001d0 24 d0 5c bd 41 1c 57 3c f7 a8 5b bd ee a4 d9 3b
       -0.053909436 0.013129295 -0.053627934 0.0066419756
0001e0 cd 9f 47 3d bb b1 d0 bd 5e 34 a1 3d ff 3e c1 bd
       0.048736382 -0.101901494 0.078713164 -0.09435844
0001f0 d1 0e f3 bd 1f b5 d0 3d d1 8a 09 bd 9f e2 e2 3c
       -0.118680604 0.10190796 -0.03357965 0.027695952
000200 39 79 e1 bb 0f 50 01 3d 7f 50 c0 bd 5a 23 0b 3e
       -0.006880906 0.03157049 -0.093903534 0.13587704
000210 41 dc 1d 3d 1d 53 de 3d a5 94 21 bd 75 26 c2 bd
       0.03854013 0.10855696 -0.0394484 -0.09479991
000220 3a 73 1b 3e 1f 01 7d bd 33 4f a8 bd 81 b6 b0 bd
       0.15180674 -0.061768647 -0.08218231 -0.0862856
000230 4f 71 ef bc e3 46 c6 bd 23 a6 21 bc ba ab 8a bd
       -0.029228834 -0.09681489 -0.00986627 -0.067710355
000240 5a 50 cc 3d 79 d8 50 bd 1e 9c 45 3e c4 83 01 bc
       0.09976263 -0.050987694 0.19297835 -0.0079049505
000250 d5 9f 64 bd 6e 03 ba 3d d7 2e 80 bc 90 e0 2f bb
       -0.05581649 0.090826854 -0.015647335 -0.002683673
000260 ec dd 54 3d 52 8e 74 3d a9 46 bc bc 02 4f 15 bd
       0.051969454 0.05970604 -0.022982912 -0.0364523
000270 d7 be 94 3d 17 91 60 3c cf cb 2f bd c6 3a 4b bd
       0.07262962 0.013706467 -0.042918976 -0.049616598
000280 8a 0f 1d be 9e 13 ca 3d 37 49 00 3e 09 21 5d bc
       -0.15337959 0.09867023 0.12527929 -0.013496646
000290 d2 b9 3f bd a3 16 8e 3c 1b 65 7e 3d 80 ce db 3d
       -0.04680807 0.017344778 0.06210814 0.10732746
0002a0 15 aa c8 3d 0d 98 ff 3d 0b 6f 92 bd 83 c9 e3 bc
       0.097980656 0.12480173 -0.07150086 -0.02780605
0002b0 bf c0 6f bd 30 94 25 3d f7 b5 b9 bd 57 a5 c4 bd
       -0.058533426 0.040424526 -0.0906791 -0.096018486
0002c0 f9 4f cf 3d 7e ea bd bd 0f c4 a4 bc fe 7f 33 3d
       0.101226754 -0.092732415 -0.02011302 0.043823235
0002d0 9e 87 c6 bd 53 f4 d2 bb 37 d8 02 3d 0d 13 cd 3d
       -0.09693836 -0.006437817 0.03194448 0.10013399
0002e0 ce cb 41 bd 1f 90 90 bb 89 7a 86 3c 65 bc 77 bd
       -0.047313504 -0.004411712 0.016415851 -0.0604824
0002f0 b3 e2 b0 bd cd ad cd bc 7f b1 6e bd 42 56 7c 3c
       -0.086369894 -0.025107289 -0.058274742 0.015401425
000300 32 8f 4b bd 90 7b 44 3d e1 7a 41 3d 20 40 29 bd
       -0.04969711 0.0479694 0.047236327 -0.04132092
000310 ff d0 fa 3c 0a 36 a2 bb e2 80 ce bd ca 75 27 bc
       0.030617235 -0.0049502896 -0.10083176 -0.010220954
000320 83 80 72 3d 7e d5 01 be 04 cf 8e bd 80 d9 78 3d
       0.05920459 -0.12679097 -0.06973079 0.0607543
000330 85 8b 31 bc 8c 05 b6 bd 88 c1 79 3c 8a 37 d1 3d
       -0.010836487 -0.08887777 0.015243895 0.10215671
000340 0f 83 09 3d 4d f5 ad 3c 6e 6d cd 3d d8 61 f9 3d
       0.033572253 0.021235133 0.10030638 0.12176865
000350 80 7b da bd 66 a8 ab 3c 52 51 3f bd 57 83 19 bc
       -0.10668087 0.020954322 -0.046708412 -0.009369693
000360 28 f7 31 3d 15 3d e8 3c 08 6d a2 bd 36 a1 9e 3d
       0.043448597 0.028349439 -0.07930952 0.07745592
000370 39 97 1b 3d 5a bf 7f 3d f8 14 bc 3d 44 91 eb 3d
       0.037986014 0.062438346 0.09183687 0.115023166
000380 85 0e 86 bd 7d e3 37 bd 26 26 34 bd d7 5d 59 bc
       -0.06545738 -0.044894684 -0.043981694 -0.013267002
000390 61 b8 89 3a bb 76 07 bc cb 9e e1 bd bc b2 ef bc
       0.001050722 -0.008268054 -0.110166155 -0.029260032
0003a0 38 18 a0 3d d4 e8 2d 3d c0 c8 f7 bc 09 79 5c 3d
       0.07817119 0.04245837 -0.030247092 0.053826366
0003b0 f9 77 c0 bd c5 6f 14 bd 39 b0 3e 3e 8f 21 3f bd
       -0.09397883 -0.036239404 0.18621911 -0.046662863
0003c0 10 66 1f 3d 60 5e 72 3d 6e 45 38 be f4 f7 b7 3d
       0.038915694 0.059172034 -0.17995235 0.0898284
0003d0 ee b2 60 3c 89 a2 a8 3d 49 57 2d bc 68 30 92 3d
       0.013714535 0.08234126 -0.010579892 0.07138139
0003e0 21 b1 24 3e af 78 cc bd 8b 9b d1 bd d8 84 20 3d
       0.16083194 -0.09983956 -0.102347456 0.03918919
0003f0 d3 ab fc 3d f6 b2 9b 3d fe c5 db bd ec 4b ca 3b
       0.1233746 0.076024935 -0.107311234 0.0061736014
