examples/mujoco_Go1/nn_params/Go1Getup/hidden_0_bias.npy (npy, 2176 bytes, 1 tensors)

array f4 [512]
000000 3c b5 1a bd df 32 1c ba 1c 0a 16 bd 71 98 87 bc
       -0.037770495 -0.0005958508 -0.036630735 -0.016552182
000010 4e 27 26 bd df 2a 69 bd 70 b9 af bd 4f 5d ae 3d
       -0.040564828 -0.05692565 -0.08580291 0.08513891
000020 cf 9a 8e 3d 26 2c 8c bd 97 6c c3 bd 92 b6 06 3d
       0.06963121 -0.06844358 -0.09542196 0.032888956
000030 99 7c 36 bd f2 20 7d bd 78 00 87 bd 46 b7 f0 3b
       -0.04455242 -0.061798997 -0.06591886 0.0073460666
000040 07 56 23 bb 4f 96 aa bd f7 7a ee bc b5 9b 9d bd
       -0.0024923102 -0.0832945 -0.029111369 -0.076957144
000050 66 c1 33 bb a5 dc 99 bd 06 7a 24 3e 39 83 dd bd
       -0.0027428507 -0.07512788 0.16062173 -0.10816044
000060 57 51 72 bc e9 b1 ee bc 9b 1a 2c bd f1 a9 55 3c
       -0.014789901 -0.029137569 -0.04201756 0.0130410055
000070 e5 af ff bd 79 75 a9 39 a6 65 85 bd 8c e4 a1 bd
       -0.12484721 0.00032321716 -0.065135285 -0.0790492
000080 73 a1 84 bc 66 4f 77 bd d8 d6 6d 3c b6 c5 6d bd
       -0.016190266 -0.060378455 0.014516555 -0.05804988
000090 08 f3 c0 3c 1e 61 ca bd 83 28 d4 3d ee 93 86 bd
       0.023553386 -0.09881805 0.103592895 -0.06571184
0000a0 f5 3f c3 bd bb bc 41 3b 3f 94 c9 bc 2e 24 3d 3d
       -0.09533683 0.0029561955 -0.024606822 0.04617708
0000b0 5b c5 ec bc cf e4 0e be 91 e6 c7 3d 08 fe 60 3c
       -0.0289027 -0.13954471 0.09760774 0.013732441
0000c0 0b b8 cc 3d 6f ae 51 bd a4 1a a2 3d af 02 f5 3d
       0.09996041 -0.051191743 0.079152375 0.119634025
0000d0 e0 b3 0f 3d 90 9f a4 3b ea cd aa bc a3 6d 53 3d
       0.03508365 0.005023904 -0.02085014 0.05161823
0000e0 99 73 87 bc 44 e7 d6 3c e7 50 16 bc a6 39 b0 bd
       -0.016534613 0.026233323 -0.009174562 -0.086047456
0000f0 99 14 05 bd b6 df 46 bd df 3a 08 bc f9 26 17 bd
       -0.032490347 -0.04855319 -0.008314817 -0.0369024
000100 7a e3 95 bd 07 80 2b bd be db 5f bd 2d 25 2e 3d
       -0.07318778 -0.041870143 -0.05465292 0.042515922
000110 73 b4 87 bc 40 c0 10 3e fb 23 8e bd 17 c0 2c 3d
       -0.016565537 0.14135838 -0.069404565 0.04217538
000120 45 68 53 3c 10 cc 82 bd 17 2b e3 3c 2f 8c b3 bd
       0.012903278 -0.06386578 0.027730508 -0.08766972
000130 27 98 2a bd a4 4e 2b 3d 97 ee 8f 3c 60 7d 81 bd
       -0.04164901 0.041823044 0.017569823 -0.063227415
000140 bb 91 ba 3c 78 32 1c bb 00 88 be bd ce b2 cc bc
       0.022774568 -0.0023833793 -0.09303284 -0.024987604
000150 d4 21 a5 bb 68 05 a3 3d 59 46 84 bd 0c 9f 90 3d
       -0.005039433 0.079600155 -0.0645873 0.07061586
000160 eb 16 b8 3d 21 aa a6 3d 92 c4 6d bd 9f 4d 08 3e
       0.08988746 0.08137918 -0.058048792 0.1331086
000170 0a dc 71 3d 70 f7 d8 3c f8 08 20 bd 89 8b 71 bd
       0.059047736 0.026485175 -0.039071053 -0.05897096
000180 d2 af b4 bd 06 7b 67 bd 8e e4 9f 3c 68 a3 a1 bd
       -0.088225976 -0.05651381 0.019518163 -0.078924954
000190 2e f2 a4 bd eb 96 ca 3b d0 0c 57 3b bb dd 39 bd
       -0.080540046 0.0061825416 0.0032814033 -0.045377474
0001a0 32 84 1f bd 21 cc 69 bd 13 8a 1d bd e4 f4 2c 3c
       -0.03894443 -0.057079438 -0.038461756 0.010556433
0001b0 17 8a 37 3c 69 33 9e 3c 29 60 d9 bd d5 2e b1 3b
       0.011202357 0.019311624 -0.10614044 0.005407194
0001c0 c0 6b f6 ba ea 13 ca bd 2f 06 80 bd 7f 4c bd bd
       -0.0018800423 -0.098670796 -0.062511794 -0.09243106
0001d0 13 0c 27 3c 89 39 d4 3b 6f bb 79 bd af ab 91 3d
       0.01019575 0.0064765853 -0.060969766 0.07112824
0001e0 c8 b2 68 bd 93 fc 3a bd 31 c6 c9 bd 52 46 cb 3c
       -0.056811124 -0.04565103 -0.09852255 0.024813805
0001f0 bb 69 81 bd b3 f9 36 3d 86 e7 8d 3a 20 a6 07 be
       -0.063189946 0.044671725 0.0010826446 -0.13246965
000200 07 e1 ab 3c b8 9e 9d bd 90 67 47 bd 76 81 ff bd
       0.020981325 -0.07696289 -0.04868275 -0.124758646
000210 c8 51 0a bd 78 d9 09 3d c9 ee 29 3d 7e 40 ae bd
       -0.0337694 0.03365466 0.04148749 -0.08508395
000220 b6 96 00 3b 2d 33 ed bc 73 63 3a 3d 89 7e a0 bd
       0.001962108 -0.028955067 0.045505 -0.07836635
000230 67 66 cd bd 9e 4f 61 bd e4 6c 94 bd 33 f2 08 3e
       -0.10029297 -0.05500757 -0.07247332 0.13373642
000240 98 ed 88 bd 2e 49 7f 3b c8 95 7a bc 15 a9 53 bd
       -0.066859424 0.003895353 -0.0152945 -0.05167492
000250 c5 89 8a bc 52 37 0f 3d 77 79 e3 3c 74 ef 1a bd
       -0.016911397 0.034964867 0.02776788 -0.037826017
000260 aa 44 1e bd 44 eb 6a 3d c5 f6 84 bc 12 8d 88 bc
       -0.038639702 0.057353273 -0.01623095 -0.01666883
000270 e5 c1 6b bb 94 53 06 be df f1 96 bd 2b fb a7 bd
       -0.0035973724 -0.1311782 -0.07370352 -0.08202203
000280 2c a6 34 3d 04 16 8c bd 22 3e 1b bb 46 95 75 bd
       0.044103786 -0.06840137 -0.0023688157 -0.05995681
000290 b4 68 2c 3d 55 66 87 bc 67 e8 f1 bd 75 ff f1 3d
       0.04209204 -0.016528288 -0.11811905 0.11816303
0002a0 aa 4b ac bd 35 1f ef bd f0 e8 d2 bc af 68 1f 3c
       -0.08412869 -0.11675874 -0.025745839 0.009729548
0002b0 ed 79 91 3d 49 11 9e 3d 5a 1d 00 bd 7d 6d 20 3d
       0.071033336 0.07718141 -0.03127799 0.039166916
0002c0 ba 6a 65 bd be c7 c0 3c 81 98 ea bd a1 47 51 3b
       -0.056009986 0.023532744 -0.11454869 0.0031933563
0002d0 32 d7 36 3e 32 96 a6 3d a2 38 45 be b1 51 14 3d
       0.17855528 0.08134116 -0.19259885 0.03621072
0002e0 82 28 ce 3c b0 21 80 bd ef 8a 8a bc 9f 14 80 bd
       0.0251658 -0.062564254 -0.016911952 -0.06253933
0002f0 2b 28 cb 3c f5 93 ca 3c 68 ef 4a be 43 89 3a bd
       0.024799427 0.024728755 -0.19817889 -0.04554106
000300 5e d5 30 bd be 1a 94 3c 32 e3 38 3d 39 b5 e7 3b
       -0.043172233 0.018079158 0.045138545 0.007071164
000310 4b 45 13 be c4 3e d1 bc 89 4e 27 bd da af 55 3d
       -0.14381902 -0.025542624 -0.04084638 0.05216966
000320 e9 7c c9 3c 6a 63 aa 3d 4d ce a6 bc b4 19 d6 3b
       0.024595695 0.08319743 -0.020362044 0.006533826
000330 f9 fa 93 3d 3d b6 dc bc 81 25 81 bd 24 ff b1 bd
       0.072256036 -0.026942367 -0.063059814 -0.08691242
000340 03 e3 2c 3c 8a 91 db bd fa a8 81 3b 2d 2e 33 be
       0.010552171 -0.10721119 0.003956911 -0.17498083
000350 77 d3 2b bd eb d2 bf bb b8 75 27 bd 1c 75 42 bd
       -0.041949715 -0.005854001 -0.04088375 -0.047474965
000360 a0 06 8e 3d b1 20 2e bd 0f d9 93 bd a4 9d f0 bc
       0.06934857 -0.042511646 -0.07219135 -0.029372044
000370 04 56 29 bd 91 84 b0 bc e2 34 15 be 96 25 ab bd
       -0.041341797 -0.021547588 -0.14570954 -0.08356778
000380 d8 61 75 bd 79 4a ee 3d 34 bd ee 3c 5f 2e 5f bd
       -0.059907764 0.11635298 0.029142953 -0.054487582
000390 17 1c a7 bc 89 29 7a bd 95 29 3a 3c 5a 7c 10 3d
       -0.020399136 -0.061074767 0.011362453 0.03527484
0003a0 8d 14 a2 3d f3 32 ca bb 6a c6 ac 3d c2 36 cb bc
       0.07914076 -0.0061706244 0.08436282 -0.024806384
0003b0 7b cb da bd bd c4 36 bc 48 1c 09 3d dc 08 0c bd
       -0.10683342 -0.0111553045 0.033474237 -0.034188136
0003c0 82 9f 59 3d 69 05 8c bc 44 18 58 bd 82 de f4 bd
       0.053130634 -0.017092424 -0.052757517 -0.119565025
0003d0 71 70 dc 3c 2c e0 ce 3c 62 7d b1 bd 25 32 d1 bc
       0.026909085 0.025253378 -0.08666493 -0.025536606
0003e0 8d 9c 87 3d 97 f1 1f 3b eb df 59 bd 24 2d 78 bd
       0.066216566 0.0024405473 -0.05319206 -0.060589924
0003f0 c5 82 44 3c 73 b2 9a 3c 99 79 92 bc a1 5b 77 3c
       0.0119940685 0.01888392 -0.017880248 0.01509753
