examples/mujoco_Go1/nn_params/Go1Getup/hidden_2_bias.npy (npy, 640 bytes, 1 tensors)

array f4 [128]
00000000: aec4 9d3c b1ec 9bba ec72 263c b424 a7bd
00000010: bb57 1e3d 1c80 71bc 7b01 dc3d 5107 bf3c
00000020: 54e6 2ebe d561 29bd 0ce1 1cbd 1c08 0dbd
00000030: 2c44 bbbd 89d4 7fbd 2253 5ebc 54ac c1bd
00000040: a3e2 57bd 3d2d 3cbb 8001 16be 08a2 bfbb
00000050: 418c bdbd 24c9 9cbc 85d2 eabd d46a e33b
00000060: f301 59bb 613d b2bd 0a1a 6abc 2bcb 883c
00000070: 29e2 f9bd 72e6 86bd 308a d9bd c0a3 223d
00000080: 3f15 4dbb a3ff 84bd 44ac 8abd 4538 b63c
00000090: 0c6b d9bd 2151 5cbc 062c dbbd 4799 b4bc
000000a0: 18bf ddbd 3154 44bc 5ae8 19bd e7fa c93c
000000b0: 5cc3 eebd ee3b f8bd 416a 85bd 3e4c 613d
000000c0: 6f6a 05bd 0ad9 a93c 416c a5bd 6bc4 67bd
000000d0: 224d c8bc 0bb9 443d 16f7 2fbc 765e 29be
000000e0: 81a8 40bd b509 79bb 87ce 18bd f987 c33c
000000f0: 3bea 13bd a157 44bd bc71 763d a553 aebd
00000100: 2b3b eb3c 57b6 67bd 4bbf a73c 761a c7bc
00000110: cea7 ff3c 94bc 973b a302 63bc 78f1 f8bd
00000120: eb04 9fbd 5284 ed3c c494 d8bc 464b ecbd
00000130: 91bd 92bb e076 8cbd d689 4fbd af77 013c
00000140: b29e 6fbc 9ac2 c73c 61ca b5bd f5f2 94bd
00000150: b9f5 923c f378 0d3d d045 ee3c b2b0 7ebc
00000160: e117 223d b1e0 36bc 39a1 30bd 5acb 9bbc
00000170: 4cc5 aebd 6849 2b3c 25c6 00bd 3e3f 81bd
00000180: d01a 85bd 8519 89bc e186 12bd 59b2 023d
00000190: f3ca 51bc 3b2f d2bd ed30 17bc b1cc b7bd
000001a0: 5f29 98bc dc22 3cbc d259 b8bd 3091 bc3c
000001b0: e7a9 bdbc bd59 0cbb 324d 01be 275b 8ebc
000001c0: ffae 2539 9e6e 9bbd e626 083d 0c36 413a
000001d0: 2f8d 4dbd 7a9e 68bc 1334 25be ba12 47bd
000001e0: 9766 27bd 3bd7 95bd 221a 8cba 21ff 3ebd
000001f0: 221f 493d 5314 2b3c b928 7cbd 745c 18bc
0.019258823 -0.0011896101 0.010159235 -0.081612974 0.038657885 -0.014740016 0.1074247 0.023318918
-0.1708005 -0.041353066 -0.03830056 -0.03443156 -0.09143862 -0.06245855 -0.013569625 -0.09456697
-0.052706372 -0.0028713488 -0.1464901 -0.005848173 -0.09255267 -0.01913888 -0.11465935 0.006940225
-0.0033112734 -0.08703113 -0.014288435 0.01669844 -0.1220134 -0.06586923 -0.1062206 0.039706945
-0.0031293181 -0.06494071 -0.06771138 0.022243628 -0.10616121 -0.013447077 -0.10701756 -0.022045745
-0.10827464 -0.011982963 -0.037575103 0.024655772 -0.116583556 -0.12120806 -0.06514407 0.05500435
-0.032572206 0.020733375 -0.080772884 -0.056583803 -0.024450842 0.048028033 -0.010740062 -0.1653994
-0.047035698 -0.003800017 -0.037306335 0.023868548 -0.03611205 -0.047935132 0.06016706 -0.08512048
0.028714737 -0.056570377 0.020476958 -0.02430461 0.031207945 0.0046306346 -0.013855609 -0.121554315
-0.0776461 0.02899376 -0.026438124 -0.11537795 -0.0044781645 -0.06858611 -0.05066856 0.00790207
-0.014625238 0.024384785 -0.08876491 -0.07272903 0.017939435 0.034539174 0.029086024 -0.015545057
0.039573554 -0.011161969 -0.043122504 -0.019017864 -0.08533725 0.010454513 -0.031438965 -0.063108906
-0.06499255 -0.016735801 -0.03577316 0.031908367 -0.0128047345 -0.10262915 -0.009227973 -0.08974589
-0.018574415 -0.0114829205 -0.09001507 0.02301845 -0.023152305 -0.0021415793 -0.12627104 -0.01737745
0.00015800817 -0.07589458 0.03324022 0.00073704193 -0.05018347 -0.01419794 -0.16133146 -0.048601843
-0.04086932 -0.073164426 -0.001068894 -0.04663003 0.049101956 0.010441857 -0.061562274 -0.009299386
