examples/mujoco_Go1/nn_params/Go1Getup/hidden_0_kernel.npy (npy, 86144 bytes, 1 tensors)

array f4 [42, 512]
-0.18464749 -0.12770912 0.17400381 0.14469677 0.19110464 0.11304996 -0.111626394 -0.18290764
0.1439324 0.15361442 0.051285665 -0.2171023 0.10545859 0.038413562 0.14977545 -0.098251015
0.101935185 -0.044120304 0.17992462 0.2303368 0.3074354 0.11172889 0.17235003 0.29915527
-0.21237993 -0.004883697 0.09662155 0.034941398 -0.09448605 0.20128402 -0.12109953 -0.21238157
-0.11427247 -0.14057364 -0.19025429 0.32405925 0.21057884 0.10142509 0.025395328 -0.13865435
-0.20316498 0.115848936 -0.22823277 0.09760735 0.11321223 -0.2504729 0.062893525 0.02738704
0.020014757 0.14828031 0.10077878 0.08802667 0.24277301 0.11408578 0.16230583 -0.2589121
0.12616439 -0.08265426 -0.060852244 0.202742 -0.20081489 0.1410794 -0.14504823 -0.17162797
0.06597242 -0.007762852 0.049438618 0.17353027 -0.099627934 -0.22785795 -0.008405163 -0.12626553
0.26557776 -0.219971 0.078815274 0.02048204 -0.15752678 0.056990657 -0.07586675 -0.10391874
-0.33545816 -0.022855638 0.031469245 0.24272236 -0.058556553 -0.21675834 0.27304217 0.10610107
-0.006253181 0.26456326 -0.16296881 0.30448994 0.26462522 -0.057464205 -0.085010014 0.1227863
-0.021000274 0.041138444 -0.07600766 -0.13343802 -0.08223652 0.105116 -0.09286801 -0.08103234
0.03095087 -0.30386418 0.059943367 -0.16986221 0.28327432 0.19978054 0.23504193 -0.041186467
0.12762828 -0.03434514 -0.014663606 0.27212515 -0.10710048 0.170094 0.18039194 0.26561213
0.13939294 0.08139493 -0.033842094 0.09515685 0.11956311 0.10813643 0.15565805 0.14326462
0.3009247 -0.08868346 -0.16668208 0.19729197 0.06722104 -0.08018994 0.14469102 0.15728076
0.054032534 0.289835 0.035842396 -0.058657173 0.08744078 -0.11222265 0.09954927 -0.1484375
0.082394734 -0.03883009 -0.063750386 -0.0949401 0.04746839 -0.20170604 -0.21355031 0.20149939
-0.056183852 -0.21644089 0.29709652 0.021929646 0.29522082 0.14559217 -0.14234938 -0.21114813
-0.1696254 0.21279311 -0.078827746 0.16903551 0.2518573 -0.20272136 0.23587276 -0.12080384
0.058598686 -0.055897374 -0.024898218 -0.21226534 -0.22778873 -0.109515764 0.030835178 0.14210272
-0.22591719 0.17342854 0.27458662 -0.106736906 -0.2995452 0.084727764 0.015450606 -0.13404486
-0.22592404 -0.24749759 0.020812757 0.052630283 -0.27802503 -0.04224639 0.13285738 -0.07495545
0.1101979 0.14438657 0.039164484 0.17773159 -0.18114917 -0.026940187 0.15482077 0.24792637
-0.012390534 -0.20627075 0.054986916 -0.13666296 0.26408318 0.19054557 -0.11449505 0.15371284
0.16967827 -0.06411792 0.05570627 -0.21054944 -0.025682067 -0.22367905 0.086684264 -0.2375432
-0.22447763 -0.2533727 -0.13488057 -0.19325213 -0.10272462 0.0015711128 0.18974799 0.0653813
-0.19958799 0.18902344 -0.17352554 -0.0067355656 0.05440583 0.26994276 -0.12422841 -0.20132013
-0.12785438 0.048790663 0.089107454 -0.16436447 -0.13853699 -0.07764125 -0.037937395 0.058949843
0.058122076 -0.06663943 0.2217383 0.16589096 -0.05707053 -0.24806853 -0.0938719 -0.095933914
-0.173459 -0.11297356 0.06760042 -0.15571271 0.13788727 -0.17450087 0.22754666 -0.13035513
00000000: 3b14 3dbe 2ec6 02be 0e2e 323e 642b 143e
00000010: efb0 433e bd86 e73d 619c e4bd 244c 3bbe
00000020: 0463 133e 194d 1d3e eb10 523d 1150 5ebe
00000030: acfa d73d 8a57 1d3d bc5e 193e d437 c9bd
00000040: 65c3 d03d 7eb7 34bd 293e 383e 69dd 6b3e
00000050: 2c68 9d3e 1ed2 e43d 877c 303e e12a 993e
00000060: 207a 59be 6b07 a0bb 85e1 c53d b61e 0f3d
00000070: e781 c1bd 661d 4e3e 0803 f8bd 8e7a 59be
00000080: af07 eabd 89f2 0fbe 05d2 42be 18eb a53e
00000090: fba1 573e f5b7 cf3d dd09 d03c 68fb 0dbe
000000a0: 7b0a 50be 3542 ed3d dab5 69be 5de6 c73d
000000b0: d0db e73d fc3d 80be 52ce 803d c95a e03c
000000c0: fdf5 a33c cbd6 173e 1b65 ce3d 5447 b43d
000000d0: 7d99 783e cea5 e93d 8033 263e 2090 84be
000000e0: 3d31 013e a346 a9bd 3440 79bd 999b 4f3e
000000f0: 6ba2 4dbe 1e77 103e 8687 14be 3ebf 2fbe
00000100: 8c1c 873d 865f febb 2680 4a3d ebb1 313e
00000110: bb09 ccbd 9853 69be cfb5 09bc c04b 01be
00000120: cff9 873e 1440 61be e769 a13d f3c9 a73c
00000130: b34e 21be 096f 693d 0760 9bbd 59d3 d4bd
00000140: 2cc1 abbe bf3b bbbc e5e5 003d 368c 783e
00000150: ffd8 6fbd e6f5 5dbe 2fcc 8b3e 854b d93d
00000160: 7ce7 ccbb d674 873e 4ce1 26be 1be6 9b3e
00000170: f57c 873e 965f 6bbd bb19 aebd 6277 fb3d
00000180: c408 acbc c980 283d e7a9 9bbd faa3 08be
00000190: 9f6b a8bd 0f47 d73d 9531 bebd 49f4 a5bd
000001a0: ae8c fd3c 1694 9bbe 2d87 753d 5cf0 2dbe
000001b0: 5509 913e 4593 4c3e d5ae 703e 24b3 28bd
000001c0: fdb0 023e 7dad 0cbd 9f3f 70bc fd53 8b3e
000001d0: 7f57 dbbd 1f2d 2e3e aab8 383e 50fe 873e
000001e0: 06bd 0e3e 63b2 a63d 029e 0abd 98e1 c23d
000001f0: 81dd f43d a276 dd3d d364 1f3e f6b3 123e
00000200: cd12 9a3e ad9f b5bd b5ae 2abe e806 4a3e
00000210: 2fab 893d a03a a4bd e229 143e 350e 213e
00000220: 3851 5d3d 4165 943e 7acf 123d 8142 70bd
00000230: 2714 b33d fdd4 e5bd 7de0 cb3d 0000 18be
00000240: 92be a83d 4d0c 1fbd 908f 82bd f56f c2bd
00000250: 376e 423d 078c 4ebe efac 5abe db55 4e3e
00000260: 0a21 66bd aea2 5dbe 091d 983e cda5 b33c
00000270: 2f27 973e 1d16 153e 09c4 11be 3737 58be
00000280: 48b2 2dbe 70e6 593e 7170 a1bd a517 2d3e
00000290: 71f3 803e 3096 4fbe a188 713e 0168 f7bd
000002a0: 2d05 703d a5f4 64bd 59f7 cbbc 165c 59be
000002b0: 7341 69be cd49 e0bd 0e9a fc3c 6083 113e
000002c0: d656 67be 4097 313e 9e96 8c3e e198 dabd
000002d0: fd5d 99be c085 ad3d 8a24 7d3c 0e43 09be
000002e0: a258 67be 0270 7dbe 847f aa3c da92 573d
000002f0: 4c59 8ebe 8d0a 2dbd c40b 083e 3e82 99bd
00000300: 70af e13d 13da 133e f06a 203d 45ff 353e
00000310: 2b7f 39be abb1 dcbc 5689 1e3e 69e0 7d3e
00000320: ab01 4bbc a438 53be f639 613d 60f1 0bbe
00000330: e935 873e 611e 433e 617c eabd e666 1d3e
00000340: 24c0 2d3e 4250 83bd 422c 643d 469a 57be
00000350: 3363 d2bc 1f0c 65be 8587 b13d 863e 73be
00000360: 77dd 65be 11ba 81be 221e 0abe e3e3 45be
00000370: 4961 d2bd cced cd3a 4c4d 423e a2e6 853d
00000380: cb60 4cbe 5c8f 413e aeb0 31be 05b6 dcbb
00000390: a6d8 5e3d f035 8a3e 776b febd dd26 4ebe
000003a0: 42ec 02be b8d8 473d f87d b63d 294f 28be
000003b0: a4dc 0dbe 6002 9fbd 3e64 1bbd 6475 713d
000003c0: 6a11 6e3d 417a 88bd 5d0f 633e 52df 293e
000003d0: cac2 69bd ad05 7ebe e93f c0bd 0079 c4bd
000003e0: 3c9f 31be af5e e7bd 1772 8a3d 2773 1fbe
000003f0: 5232 0d3e 5bb0 32be fe01 693e d17b 05be
