examples/mujoco_Go1/nn_params/Go1Getup/hidden_3_kernel.npy (npy, 12416 bytes, 1 tensors)

array f4 [128, 24]
00000000: eb0e aabc 943a d03d eafa d33d 27d5 9abd
00000010: 3f94 a4bc ebfc 0ebd 04c4 ec3b 86e2 13bc
00000020: ff80 bd3d 9f64 babd 89d9 463d a965 bfbd
00000030: f08a 04be 7b56 0fbd 764d 173d 8d9b 29be
00000040: a37c 81bd c60e d6bd af69 f8bd c21b 6b3d
00000050: cc8c 833c a185 21be 8b29 5ebd dd83 b33b
00000060: 2c64 193c cb64 b93d 2923 88bb 97a3 60bd
00000070: aed6 f5bc a906 a83d c798 4a3d 62e7 903d
00000080: 37b7 0dbd c774 9bbc 594c a63c 1bd5 0ebe
00000090: bb26 a23c 384f 04be 6b86 21be 19e2 36bd
000000a0: 639d ffbd 1b8f bcbd 97af ba3d 89db cf3c
000000b0: 38fd 2c3d b67a 913a a00c f2bd fee7 f83d
000000c0: b443 d63c 8771 0fbe 37e6 633d ebb7 cbbc
000000d0: 76de b83d 8c28 283d ab34 0f3e 52b8 aa3d
000000e0: cae6 e83a 42de 113d 3b84 a5bd ec07 8d3d
000000f0: ec2f 683d aa04 bfbd d224 5b3c 1d59 3d3d
00000100: 542d 653d 3912 2fbd fcb4 0cbd c966 a9bd
00000110: 4ca4 07bd b910 24bd ac5f a7bd f3f5 b33d
00000120: 9050 b33d 43e0 d03d 538a 01be 6e0d bebd
00000130: c4da 2b3e 73d2 af3d f56f 023e 18d0 193e
00000140: e18c da3d 6623 8f3a 5c4a 673d 6d51 24be
00000150: 11d8 df3d 386c d73c 6fa3 143d 1bd8 583e
00000160: f710 433d 91a5 3e3e 7e31 243e 5bbb 1ebd
00000170: 9b35 163e 4da3 573e 20f9 4e3e 7f81 673e
00000180: 311c 8d3d d27e d5bc 9583 a03d c58d 30bd
00000190: 0cb5 09be fe66 87bc e657 ddbd ec65 9e3d
000001a0: ca33 20bc 6c64 dabd b05d 4c3a e4dc 2fbd
000001b0: cffb 20be 6241 b43d da3a 08bc cebc d0b9
000001c0: 331b 38be e690 ddbd 8eda e7bd 31f3 62be
000001d0: 544d bbbd 1a23 32be 5a13 0cbe 5a8c 873c
000001e0: 556c f3bd a308 fbbc d328 debd 08fa 9bbd
000001f0: 240e 1ebe 7ff5 9b3c 9b7d 8b3d a6b0 4c3d
00000200: ad5d e43c 9a25 d73d 00c2 e6bc 9b03 95bd
00000210: b277 09be 51d0 8fbc 71a0 843d 7994 c93d
00000220: 0d77 aa3c 1313 1d3e 6b16 0cbd 0115 a23c
00000230: 6c7a 94bd 3b5e 1ebd 982a 693d 1cd0 42bd
00000240: d459 9f3d 43e9 983d 5988 a73d 12e6 73bd
00000250: 0848 743d 47eb 963d 2b66 f5bd 9214 98bd
00000260: b728 603d 4b18 873c 4e4a d1bc eafa a23d
00000270: a838 efbc 22ca 4abe f15c 93bc a7d6 9fbd
00000280: c3fa f1bd 74cb 35be 0af8 36be bde6 86be
00000290: cb9c 21be 7b73 50be 9b04 70be 52b7 bdbd
000002a0: f0e5 ad3d 8676 d43d 028e 393c 0b17 ac3d
000002b0: 3a42 e0bc f9a4 883d 3fe9 273e 71bb 6ebd
000002c0: 4d22 7cbd a4e7 6cbd 2d42 3f3d 6d7c d73d
000002d0: c5a3 16be a1c9 04be 2d51 aa3d bfa1 1fbe
000002e0: 5318 533b 6a67 adbd 630c 03be bef1 8abc
000002f0: fe9b c4bd 7537 63bd e487 0cbe 4b84 39be
00000300: 60e1 4d3d adba 4b3a 22a8 18be 1656 ef3d
00000310: fc37 303e cb20 f8bd 472e 73bb 54bc 5bbd
00000320: 5fe1 06bd 35ad ecbd 5a4a a63d 341a a93c
00000330: d44d e93d ffd6 91bd e1cf 013e effa 713e
00000340: 171a cd3d 0c51 0f3e 429c da3d 3de5 a83d
00000350: 6f97 5a3e c163 963d 1ec8 8a3e ea78 fd3c
00000360: 0a0f 6dbc 3d55 f53d 5962 563c 5eff ea3d
00000370: c914 1c3c 053d bb3c 2bfd 0dbd 3630 4a3b
00000380: 79a3 8a3d 7e35 b4bd c1e4 cfbd 3bf5 923d
00000390: 48bc a93c 7ac2 9b3d a9b4 af3d 84a4 c63d
000003a0: 36cd 95bd 6a11 843d b7d8 9bbd 05c6 2b3d
000003b0: c38b 913d adca 07be c3f8 36bd 14c2 7bbd
000003c0: fdab 533c 4ee5 853d d4a3 7f3d d476 7239
000003d0: 3dd3 b23d dc4b 1f3c 6067 0bbd 71bd a6bc
000003e0: 0e8c 173e da64 56bd fd6b ab3d ed7b 9abd
000003f0: 1048 ab3d eac8 69bd e085 b93d 829b a3bd
-0.020759067 0.10167423 0.103505924 -0.07560187 -0.02009022 -0.03490917 0.0072255153 -0.009026175
0.0925312 -0.09101223 0.0485473 -0.09345562 -0.12943625 -0.034994584 0.036939107 -0.16563244
-0.06322601 -0.104520366 -0.121295325 0.05739952 0.016058348 -0.15773632 -0.054238837 0.005478366
0.009362262 0.09052428 -0.004154582 -0.05484351 -0.030009594 0.08204395 0.049462106 0.07075383
-0.034598555 -0.018976582 0.020300077 -0.13948481 0.019793859 -0.12920845 -0.15773933 -0.044649217
-0.12481191 -0.09206983 0.09115522 0.025373237 0.042233676 0.0011099193 -0.11818814 0.12153624
0.02615533 -0.14008151 0.05563947 -0.024867972 0.09026806 0.041054294 0.13984935 0.083359376
0.0017768976 0.035612352 -0.080818616 0.068862766 0.056686327 -0.093270615 0.013375478 0.046227563
0.05595143 -0.042741988 -0.034352288 -0.08271558 -0.03311567 -0.04005501 -0.08172545 0.087871455
0.087556005 0.101990245 -0.12650423 -0.09279905 0.16782671 0.08585062 0.1273802 0.15020788
0.10671402 0.0010920584 0.0564674 -0.16046686 0.10929883 0.02629672 0.036288675 0.21176188
0.0476236 0.18617846 0.16034505 -0.038752895 0.14668886 0.21058388 0.20212221 0.22607993
0.06890143 -0.02606145 0.07837597 -0.043103952 -0.1344797 -0.016528603 -0.10807781 0.07734284
-0.0097779725 -0.10663685 0.0007795943 -0.042935267 -0.15721057 0.08801533 -0.008314813 -0.00039813522
-0.17979126 -0.10818653 -0.11320983 -0.22163083 -0.091456085 -0.17396203 -0.13679257 0.016546417
-0.11885897 -0.030643767 -0.1084763 -0.07616049 -0.15435082 0.01903796 0.06811067 0.049973153
0.0278767 0.10505219 -0.028168678 -0.07276078 -0.13424566 -0.017555388 0.06475914 0.09842772
0.020808721 0.15339307 -0.034201067 0.019785406 -0.072499126 -0.038664084 0.056925386 -0.04756175
0.07780805 0.07466366 0.08180303 -0.059545584 0.059639007 0.07369094 -0.119823776 -0.074257985
0.05472633 0.016491076 -0.025548127 0.07958014 -0.02920182 -0.1980367 -0.017988654 -0.078046136
-0.11815407 -0.17753392 -0.17868057 -0.26347914 -0.15782468 -0.20356552 -0.23439257 -0.09263481
0.08491123 0.10374169 0.011325361 0.084028326 -0.02737533 0.06672091 0.1639757 -0.058284227
-0.06155615 -0.057838097 0.04669397 0.10521779 -0.1471091 -0.1296754 0.08316264 -0.15589045
0.0032210543 -0.0846699 -0.12797694 -0.016960975 -0.09600066 -0.05547281 -0.13723713 -0.18116872
0.050263762 0.00077716523 -0.14907888 0.116863415 0.17208856 -0.1211563 -0.003710644 -0.0536464
-0.032929774 -0.11556474 0.0811965 0.020642377 0.11391798 -0.071210854 0.12676956 0.2363088
0.10014742 0.1399576 0.10674335 0.08246849 0.2134683 0.07343245 0.27105802 0.030941445
-0.014468918 0.119791485 0.013084971 0.11474489 0.00952644 0.022856245 -0.034665268 0.003085149
0.06769461 -0.08799265 -0.10151053 0.0717568 0.020719662 0.07605453 0.0857938 0.096993476
-0.073145315 0.06448634 -0.076096945 0.041936893 0.071067356 -0.13260908 -0.04467083 -0.061464384
0.012919423 0.06537877 0.062412098 0.00023123185 0.08731697 0.009722676 -0.034034133 -0.020354005
0.1479952 -0.052342273 0.083702065 -0.07543168 0.08363354 -0.057076372 0.09058738 -0.07988645
