examples/mujoco_Go1/nn_params/Go1Getup/hidden_1_kernel.npy (npy, 524416 bytes, 1 tensors)

array f4 [512, 256]
00000000: 98fb 77ba dc11 97bc bc2f 12bc 8baa 2c3c
00000010: 1ab0 2bbd 38dc dbbd 7ad8 ddbd 4600 6c3d
00000020: 89d6 bd3d c92a cb3c be99 2f3e efc0 943c
00000030: 06b2 463d 7119 3bbd 22a5 aebc 070a fdbc
00000040: fc60 0abe 9414 dfbc 6146 8e3d 7f92 48bc
00000050: 6b6b 643c a573 553d 8cc9 933d c2e5 b63d
00000060: f22f 02bd 5682 a23d 11af b3bb 14e2 c33d
00000070: 233f 36bd e459 e0bd c00f d5bd bd8b 953d
00000080: 8fb7 69bd acdd 1fbd fb79 ed3c 070b 11bd
00000090: ebf0 173d fc1a f4bb b843 89b9 6bdb 273c
000000a0: 9c04 24be c00f f83c 09ec 753d 7e78 7e3c
000000b0: 0827 1c3d 5264 8c3c 292a debd caa7 d2bc
000000c0: df00 93bd 4a2f 783d 5751 1dbc bf21 e63a
000000d0: a7eb cfbd a42b c6bc 11a3 1ebe 7ecc 41bd
000000e0: ac7a 703d 6900 2b3d 0304 26bd 84b4 f73d
000000f0: fd24 053e 5e83 febd f208 263c 3340 83bc
00000100: 5d86 57bd 258e ccba f7f9 e7bd 56b8 63bd
00000110: ca1b 4abd f867 283d 696f 05bd 4e79 36bc
00000120: 1fdd 0e3d 62f7 df3d c522 ea3c 852c fd3c
00000130: 189f dd3b 8332 ba3c cf0d 6a3d 629a 50bc
00000140: 0845 01be 1206 293e c9cf 17bd bed2 00be
00000150: 439f 973d 94af e0bd ab17 8d3c 837f 8cbb
00000160: 3a7f 05bd 0179 edbb 06a9 ed3d 7ae7 8a3c
00000170: f209 b3bd cb90 1cbd cf6c 893c 3f26 dabd
00000180: 4d2f 123d 2c54 493d 15de 2ebb 733c 4abe
00000190: 856e 22bd 0008 2f3c 3be7 773c 2181 5c3d
000001a0: 88e8 c23c 1320 e2bc fa88 003d 38c0 e2bd
000001b0: 9c9b bebd f52f 72bd 5de5 633d 5bf1 80bd
000001c0: c5cb f43c c1d2 abbb 16e8 13bd f4eb 973d
000001d0: 5393 863d f6f2 063e d9ec 803d 9d11 36bd
000001e0: 84bb 30bd 41fd 2dbc a492 dc3d 476d 4d3d
000001f0: ad45 05be 5101 d8bc eee9 b33d 3f19 97bd
00000200: 24b6 e0bd 4b9e 5dbd 456e 5ebb 31ad 303d
00000210: 1d06 cc3c 1541 4cbd 952b 613d 3273 1abd
00000220: 0157 bc3d 6bdc 62bc 1cfb 85bd 6e50 e9bd
00000230: afb3 f73d 8425 a9bc b5bb f3bd a38a 51bd
00000240: 16ad 9dbd 31d3 69bd 89b8 35bd e7e9 aa3d
00000250: 04d4 ccbc f7b2 9e3d dabb 82bd 0fba 7bbd
00000260: c381 06be 1178 b63d 367c deba b135 81bc
00000270: 16b8 6d3d 970f c33c 1f6a b2bd 9be6 e6bc
00000280: 8ec1 0ebd 0be3 afbd e531 0a3c 0e6f 953d
00000290: c173 13be 7e7b b93c f9de 19bc 2229 713d
000002a0: f708 a43c 3f1b 7e3c 5e9d 113c 8ac8 cebd
000002b0: e283 e13b ed93 d53b 0fce f2bd fbd6 02be
000002c0: 9fdf f0bb 849b d3bd 3d12 d8bd 06e7 d5bb
000002d0: bb9c 0dbe 3a5b f5bc c970 9dbd fbcf 7d3d
000002e0: 993d 9c3c 830d 853d 27df 0abb c230 32bd
000002f0: 0e49 163d 716e 8e3d 56ef 29bd e795 36be
00000300: 9fb2 0fbe accd 79bb 268e a9bd ccc9 bb3d
00000310: cca5 b63c cba6 e4bb 2dad 40bc 0372 9b3d
00000320: 6648 f43b 9c11 733d ce02 abbd 467b 953c
00000330: 9201 9bbc 7742 54bd c9a3 8b3d 59d1 ccbb
00000340: 695a 96bd 8070 173d 2423 963d 3378 28bd
00000350: 7ac4 27be 3b42 97bc fc4d 3fbc 3e62 3dbe
00000360: 381d 003e 71ed 0e3d 7b11 793d 8a98 bc3d
00000370: bd3b 943d c159 f9bc 9a81 463d 20a4 243d
00000380: e2e3 7a3d d7ef 523d 19eb 863d e62b b23c
00000390: b45f bdbd e677 38bd 90cd 053e ba79 1d3c
000003a0: 70e1 d9bc 19c7 fbbc ffe6 ecbd ebbd ab3d
000003b0: 257e b23c c0b4 ee3b f0a0 803d f39f ec3c
000003c0: 3af1 e53d ee5c 86bc 405c 25bc 5cea 983d
000003d0: d40a 8bbd 4f0a 203d 5afa a03b ee0d 86bc
000003e0: d9d1 57bd 598c 353e 98dd 08be 413e 113d
000003f0: 59fe d4bc 1329 5dbd 5111 023e baff 063e
-0.00094597926 -0.018441133 -0.008922514 0.0105387075 -0.04191599 -0.10735363 -0.10832305 0.05761745
0.09269435 0.024800675 0.17148492 0.018158404 0.04850962 -0.04567856 -0.021318976 -0.03088857
-0.13513559 -0.027231492 0.069470175 -0.012241959 0.013941626 0.05211224 0.072161764 0.089305416
-0.031784005 0.07935016 -0.005483516 0.09564605 -0.044493806 -0.10954645 -0.10403395 0.073020436
-0.05705982 -0.039029762 0.028988829 -0.035410907 0.03709499 -0.007449506 -0.0002618113 0.010245184
-0.16017383 0.030280948 0.060039554 0.015531657 0.03812316 0.01713768 -0.10847885 -0.025714774
-0.071779005 0.060591973 -0.009601912 0.0017557665 -0.10152369 -0.024190731 -0.15491892 -0.04731416
0.05871074 0.041748438 -0.04053117 0.120949775 0.13002391 -0.124274 0.010133969 -0.016021824
-0.052618373 -0.0015606327 -0.11326974 -0.05559572 -0.049342908 0.041114777 -0.032576952 -0.01113732
0.034878846 0.109358564 0.028581033 0.030905018 0.00676335 0.022729164 0.057142075 -0.01273212
-0.1262399 0.16506222 -0.037063394 -0.12580392 0.07403424 -0.10970989 0.0172232 -0.0042876615
-0.032592036 -0.007247091 0.11604504 0.01695608 -0.08742131 -0.038224023 0.016775517 -0.10651826
0.03568964 0.04915254 -0.0026682664 -0.19749622 -0.03965618 0.01068306 0.015130813 0.053834084
0.02379252 -0.027603185 0.03138063 -0.11071819 -0.09307024 -0.059127767 0.05563866 -0.06296035
0.029882321 -0.0052436297 -0.036110006 0.07418051 0.065710686 0.1317862 0.06295175 -0.04445039
-0.04314758 -0.0106194625 0.10770157 0.050153043 -0.1301486 -0.026367815 0.08784853 -0.07377862
-0.109722406 -0.054106038 -0.0033940237 0.04313392 0.024905259 -0.049866755 0.054973204 -0.037707515
0.09196282 -0.013846497 -0.06542036 -0.11392294 0.12094819 -0.020647772 -0.11901037 -0.051157605
-0.07699029 -0.057086173 -0.04436544 0.083453946 -0.02500344 0.077489786 -0.06383486 -0.061456736
-0.13135438 0.089096196 -0.0016974274 -0.015772672 0.058036886 0.023811145 -0.08711647 -0.028186133
-0.034852557 -0.08588227 0.008434747 0.072965726 -0.14399625 0.022641893 -0.00939154 0.058877118
0.020023806 0.015509426 0.008887617 -0.100968435 0.0068821767 0.0065178783 -0.11855709 -0.12777321
-0.0073508765 -0.103323966 -0.10550354 -0.0065277843 -0.13829319 -0.029950727 -0.07687528 0.061965924
0.01907234 0.06496718 -0.0021190138 -0.04350353 0.036690764 0.06954659 -0.041488014 -0.1783062
-0.14032982 -0.0038116975 -0.08279066 0.09169349 0.022295855 -0.006977891 -0.011760038 0.075901054
0.0074549196 0.059342965 -0.08350144 0.018247258 -0.018921647 -0.0518212 0.06818349 -0.006250542
-0.07341463 0.036972523 0.07330921 -0.041130256 -0.16383544 -0.018464198 -0.011676308 -0.18494508
0.12511146 0.03489441 0.060807686 0.09208782 0.07237957 -0.030438306 0.04846344 0.040195584
0.061252482 0.05149826 0.0658781 0.021749448 -0.092467695 -0.04503622 0.13066697 0.009611541
-0.026596755 -0.030734586 -0.115674965 0.08385833 0.021788666 0.0072847307 0.062806964 0.028884863
0.11227651 -0.016401734 -0.010092795 0.074665755 -0.06789175 0.03907233 0.0049126567 -0.016364064
-0.05269036 0.1772932 -0.13365781 0.03545976 -0.026000189 -0.05399425 0.12701918 0.1318349
